{"keras_version": "2.1.6-tf", "config": {"name": "sequential", "layers": [{"config": {"name": "resnet50", "input_layers": [["input_1", 0, 0]], "layers": [{"name": "input_1", "config": {"name": "input_1", "sparse": false, "dtype": "float32", "batch_input_shape": [null, null, null, 3]}, "class_name": "InputLayer", "inbound_nodes": []}, {"name": "conv1_pad", "config": {"name": "conv1_pad", "dtype": "float32", "data_format": "channels_last", "padding": [[3, 3], [3, 3]], "trainable": true}, "class_name": "ZeroPadding2D", "inbound_nodes": [[["input_1", 0, 0, {}]]]}, {"name": "conv1", "config": {"bias_constraint": null, "strides": [2, 2], "kernel_initializer": {"config": {"distribution": "truncated_normal", "seed": null, "dtype": "float32", "scale": 2.0, "mode": "fan_in"}, "class_name": "VarianceScaling"}, "dilation_rate": [1, 1], "use_bias": true, "dtype": "float32", "kernel_size": [7, 7], "activation": "linear", "kernel_constraint": null, "filters": 64, "activity_regularizer": null, "data_format": "channels_last", "name": "conv1", "bias_regularizer": null, "bias_initializer": {"config": {"dtype": "float32"}, "class_name": "Zeros"}, "kernel_regularizer": null, "padding": "valid", "trainable": true}, "class_name": "Conv2D", "inbound_nodes": [[["conv1_pad", 0, 0, {}]]]}, {"name": "bn_conv1", "config": {"momentum": 0.99, "beta_initializer": {"config": {"dtype": "float32"}, "class_name": "Zeros"}, "axis": [3], "gamma_regularizer": null, "dtype": "float32", "center": true, "scale": true, "beta_constraint": null, "gamma_constraint": null, "moving_mean_initializer": {"config": {"dtype": "float32"}, "class_name": "Zeros"}, "gamma_initializer": {"config": {"dtype": "float32"}, "class_name": "Ones"}, "name": "bn_conv1", "beta_regularizer": null, "moving_variance_initializer": {"config": {"dtype": "float32"}, "class_name": "Ones"}, "epsilon": 0.001, "trainable": true}, "class_name": "BatchNormalization", "inbound_nodes": [[["conv1", 0, 0, {}]]]}, {"name": "activation", "config": {"activation": "relu", "name": "activation", "dtype": "float32", "trainable": true}, "class_name": "Activation", "inbound_nodes": [[["bn_conv1", 0, 0, {}]]]}, {"name": "pool1_pad", "config": {"name": "pool1_pad", "dtype": "float32", "data_format": "channels_last", "padding": [[1, 1], [1, 1]], "trainable": true}, "class_name": "ZeroPadding2D", "inbound_nodes": [[["activation", 0, 0, {}]]]}, {"name": "max_pooling2d", "config": {"strides": [2, 2], "data_format": "channels_last", "name": "max_pooling2d", "pool_size": [3, 3], "dtype": "float32", "padding": "valid", "trainable": true}, "class_name": "MaxPooling2D", "inbound_nodes": [[["pool1_pad", 0, 0, {}]]]}, {"name": "res2a_branch2a", "config": {"bias_constraint": null, "strides": [1, 1], "kernel_initializer": {"config": {"distribution": "truncated_normal", "seed": null, "dtype": "float32", "scale": 2.0, "mode": "fan_in"}, "class_name": "VarianceScaling"}, "dilation_rate": [1, 1], "use_bias": true, "dtype": "float32", "kernel_size": [1, 1], "activation": "linear", "kernel_constraint": null, "filters": 64, "activity_regularizer": null, "data_format": "channels_last", "name": "res2a_branch2a", "bias_regularizer": null, "bias_initializer": {"config": {"dtype": "float32"}, "class_name": "Zeros"}, "kernel_regularizer": null, "padding": "valid", "trainable": true}, "class_name": "Conv2D", "inbound_nodes": [[["max_pooling2d", 0, 0, {}]]]}, {"name": "bn2a_branch2a", "config": {"momentum": 0.99, "beta_initializer": {"config": {"dtype": "float32"}, "class_name": "Zeros"}, "axis": [3], "gamma_regularizer": null, "dtype": "float32", "center": true, "scale": true, "beta_constraint": null, "gamma_constraint": null, "moving_mean_initializer": {"config": {"dtype": "float32"}, "class_name": "Zeros"}, "gamma_initializer": {"config": {"dtype": "float32"}, "class_name": "Ones"}, "name": "bn2a_branch2a", "beta_regularizer": null, "moving_variance_initializer": {"config": {"dtype": "float32"}, "class_name": "Ones"}, "epsilon": 0.001, "trainable": true}, "class_name": "BatchNormalization", "inbound_nodes": [[["res2a_branch2a", 0, 0, {}]]]}, {"name": "activation_1", "config": {"activation": "relu", "name": "activation_1", "dtype": "float32", "trainable": true}, "class_name": "Activation", "inbound_nodes": [[["bn2a_branch2a", 0, 0, {}]]]}, {"name": "res2a_branch2b", "config": {"bias_constraint": null, "strides": [1, 1], "kernel_initializer": {"config": {"distribution": "truncated_normal", "seed": null, "dtype": "float32", "scale": 2.0, "mode": "fan_in"}, "class_name": "VarianceScaling"}, "dilation_rate": [1, 1], "use_bias": true, "dtype": "float32", "kernel_size": [3, 3], "activation": "linear", "kernel_constraint": null, "filters": 64, "activity_regularizer": null, "data_format": "channels_last", "name": "res2a_branch2b", "bias_regularizer": null, "bias_initializer": {"config": {"dtype": "float32"}, "class_name": "Zeros"}, "kernel_regularizer": null, "padding": "same", "trainable": true}, "class_name": "Conv2D", "inbound_nodes": [[["activation_1", 0, 0, {}]]]}, {"name": "bn2a_branch2b", "config": {"momentum": 0.99, "beta_initializer": {"config": {"dtype": "float32"}, "class_name": "Zeros"}, "axis": [3], "gamma_regularizer": null, "dtype": "float32", "center": true, "scale": true, "beta_constraint": null, "gamma_constraint": null, "moving_mean_initializer": {"config": {"dtype": "float32"}, "class_name": "Zeros"}, "gamma_initializer": {"config": {"dtype": "float32"}, "class_name": "Ones"}, "name": "bn2a_branch2b", "beta_regularizer": null, "moving_variance_initializer": {"config": {"dtype": "float32"}, "class_name": "Ones"}, "epsilon": 0.001, "trainable": true}, "class_name": "BatchNormalization", "inbound_nodes": [[["res2a_branch2b", 0, 0, {}]]]}, {"name": "activation_2", "config": {"activation": "relu", "name": "activation_2", "dtype": "float32", "trainable": true}, "class_name": "Activation", "inbound_nodes": [[["bn2a_branch2b", 0, 0, {}]]]}, {"name": "res2a_branch2c", "config": {"bias_constraint": null, "strides": [1, 1], "kernel_initializer": {"config": {"distribution": "truncated_normal", "seed": null, "dtype": "float32", "scale": 2.0, "mode": "fan_in"}, "class_name": "VarianceScaling"}, "dilation_rate": [1, 1], "use_bias": true, "dtype": "float32", "kernel_size": [1, 1], "activation": "linear", "kernel_constraint": null, "filters": 256, "activity_regularizer": null, "data_format": "channels_last", "name": "res2a_branch2c", "bias_regularizer": null, "bias_initializer": {"config": {"dtype": "float32"}, "class_name": "Zeros"}, "kernel_regularizer": null, "padding": "valid", "trainable": true}, "class_name": "Conv2D", "inbound_nodes": [[["activation_2", 0, 0, {}]]]}, {"name": "res2a_branch1", "config": {"bias_constraint": null, "strides": [1, 1], "kernel_initializer": {"config": {"distribution": "truncated_normal", "seed": null, "dtype": "float32", "scale": 2.0, "mode": "fan_in"}, "class_name": "VarianceScaling"}, "dilation_rate": [1, 1], "use_bias": true, "dtype": "float32", "kernel_size": [1, 1], "activation": "linear", "kernel_constraint": null, "filters": 256, "activity_regularizer": null, "data_format": "channels_last", "name": "res2a_branch1", "bias_regularizer": null, "bias_initializer": {"config": {"dtype": "float32"}, "class_name": "Zeros"}, "kernel_regularizer": null, "padding": "valid", "trainable": true}, "class_name": "Conv2D", "inbound_nodes": [[["max_pooling2d", 0, 0, {}]]]}, {"name": "bn2a_branch2c", "config": {"momentum": 0.99, "beta_initializer": {"config": {"dtype": "float32"}, "class_name": "Zeros"}, "axis": [3], "gamma_regularizer": null, "dtype": "float32", "center": true, "scale": true, "beta_constraint": null, "gamma_constraint": null, "moving_mean_initializer": {"config": {"dtype": "float32"}, "class_name": "Zeros"}, "gamma_initializer": {"config": {"dtype": "float32"}, "class_name": "Ones"}, "name": "bn2a_branch2c", "beta_regularizer": null, "moving_variance_initializer": {"config": {"dtype": "float32"}, "class_name": "Ones"}, "epsilon": 0.001, "trainable": true}, "class_name": "BatchNormalization", "inbound_nodes": [[["res2a_branch2c", 0, 0, {}]]]}, {"name": "bn2a_branch1", "config": {"momentum": 0.99, "beta_initializer": {"config": {"dtype": "float32"}, "class_name": "Zeros"}, "axis": [3], "gamma_regularizer": null, "dtype": "float32", "center": true, "scale": true, "beta_constraint": null, "gamma_constraint": null, "moving_mean_initializer": {"config": {"dtype": "float32"}, "class_name": "Zeros"}, "gamma_initializer": {"config": {"dtype": "float32"}, "class_name": "Ones"}, "name": "bn2a_branch1", "beta_regularizer": null, "moving_variance_initializer": {"config": {"dtype": "float32"}, "class_name": "Ones"}, "epsilon": 0.001, "trainable": true}, "class_name": "BatchNormalization", "inbound_nodes": [[["res2a_branch1", 0, 0, {}]]]}, {"name": "add", "config": {"name": "add", "dtype": "float32", "trainable": true}, "class_name": "Add", "inbound_nodes": [[["bn2a_branch2c", 0, 0, {}], ["bn2a_branch1", 0, 0, {}]]]}, {"name": "activation_3", "config": {"activation": "relu", "name": "activation_3", "dtype": "float32", "trainable": true}, "class_name": "Activation", "inbound_nodes": [[["add", 0, 0, {}]]]}, {"name": "res2b_branch2a", "config": {"bias_constraint": null, "strides": [1, 1], "kernel_initializer": {"config": {"distribution": "truncated_normal", "seed": null, "dtype": "float32", "scale": 2.0, "mode": "fan_in"}, "class_name": "VarianceScaling"}, "dilation_rate": [1, 1], "use_bias": true, "dtype": "float32", "kernel_size": [1, 1], "activation": "linear", "kernel_constraint": null, "filters": 64, "activity_regularizer": null, "data_format": "channels_last", "name": "res2b_branch2a", "bias_regularizer": null, "bias_initializer": {"config": {"dtype": "float32"}, "class_name": "Zeros"}, "kernel_regularizer": null, "padding": "valid", "trainable": true}, "class_name": "Conv2D", "inbound_nodes": [[["activation_3", 0, 0, {}]]]}, {"name": "bn2b_branch2a", "config": {"momentum": 0.99, "beta_initializer": {"config": {"dtype": "float32"}, "class_name": "Zeros"}, "axis": [3], "gamma_regularizer": null, "dtype": "float32", "center": true, "scale": true, "beta_constraint": null, "gamma_constraint": null, "moving_mean_initializer": {"config": {"dtype": "float32"}, "class_name": "Zeros"}, "gamma_initializer": {"config": {"dtype": "float32"}, "class_name": "Ones"}, "name": "bn2b_branch2a", "beta_regularizer": null, "moving_variance_initializer": {"config": {"dtype": "float32"}, "class_name": "Ones"}, "epsilon": 0.001, "trainable": true}, "class_name": "BatchNormalization", "inbound_nodes": [[["res2b_branch2a", 0, 0, {}]]]}, {"name": "activation_4", "config": {"activation": "relu", "name": "activation_4", "dtype": "float32", "trainable": true}, "class_name": "Activation", "inbound_nodes": [[["bn2b_branch2a", 0, 0, {}]]]}, {"name": "res2b_branch2b", "config": {"bias_constraint": null, "strides": [1, 1], "kernel_initializer": {"config": {"distribution": "truncated_normal", "seed": null, "dtype": "float32", "scale": 2.0, "mode": "fan_in"}, "class_name": "VarianceScaling"}, "dilation_rate": [1, 1], "use_bias": true, "dtype": "float32", "kernel_size": [3, 3], "activation": "linear", "kernel_constraint": null, "filters": 64, "activity_regularizer": null, "data_format": "channels_last", "name": "res2b_branch2b", "bias_regularizer": null, "bias_initializer": {"config": {"dtype": "float32"}, "class_name": "Zeros"}, "kernel_regularizer": null, "padding": "same", "trainable": true}, "class_name": "Conv2D", "inbound_nodes": [[["activation_4", 0, 0, {}]]]}, {"name": "bn2b_branch2b", "config": {"momentum": 0.99, "beta_initializer": {"config": {"dtype": "float32"}, "class_name": "Zeros"}, "axis": [3], "gamma_regularizer": null, "dtype": "float32", "center": true, "scale": true, "beta_constraint": null, "gamma_constraint": null, "moving_mean_initializer": {"config": {"dtype": "float32"}, "class_name": "Zeros"}, "gamma_initializer": {"config": {"dtype": "float32"}, "class_name": "Ones"}, "name": "bn2b_branch2b", "beta_regularizer": null, "moving_variance_initializer": {"config": {"dtype": "float32"}, "class_name": "Ones"}, "epsilon": 0.001, "trainable": true}, "class_name": "BatchNormalization", "inbound_nodes": [[["res2b_branch2b", 0, 0, {}]]]}, {"name": "activation_5", "config": {"activation": "relu", "name": "activation_5", "dtype": "float32", "trainable": true}, "class_name": "Activation", "inbound_nodes": [[["bn2b_branch2b", 0, 0, {}]]]}, {"name": "res2b_branch2c", "config": {"bias_constraint": null, "strides": [1, 1], "kernel_initializer": {"config": {"distribution": "truncated_normal", "seed": null, "dtype": "float32", "scale": 2.0, "mode": "fan_in"}, "class_name": "VarianceScaling"}, "dilation_rate": [1, 1], "use_bias": true, "dtype": "float32", "kernel_size": [1, 1], "activation": "linear", "kernel_constraint": null, "filters": 256, "activity_regularizer": null, "data_format": "channels_last", "name": "res2b_branch2c", "bias_regularizer": null, "bias_initializer": {"config": {"dtype": "float32"}, "class_name": "Zeros"}, "kernel_regularizer": null, "padding": "valid", "trainable": true}, "class_name": "Conv2D", "inbound_nodes": [[["activation_5", 0, 0, {}]]]}, {"name": "bn2b_branch2c", "config": {"momentum": 0.99, "beta_initializer": {"config": {"dtype": "float32"}, "class_name": "Zeros"}, "axis": [3], "gamma_regularizer": null, "dtype": "float32", "center": true, "scale": true, "beta_constraint": null, "gamma_constraint": null, "moving_mean_initializer": {"config": {"dtype": "float32"}, "class_name": "Zeros"}, "gamma_initializer": {"config": {"dtype": "float32"}, "class_name": "Ones"}, "name": "bn2b_branch2c", "beta_regularizer": null, "moving_variance_initializer": {"config": {"dtype": "float32"}, "class_name": "Ones"}, "epsilon": 0.001, "trainable": true}, "class_name": "BatchNormalization", "inbound_nodes": [[["res2b_branch2c", 0, 0, {}]]]}, {"name": "add_1", "config": {"name": "add_1", "dtype": "float32", "trainable": true}, "class_name": "Add", "inbound_nodes": [[["bn2b_branch2c", 0, 0, {}], ["activation_3", 0, 0, {}]]]}, {"name": "activation_6", "config": {"activation": "relu", "name": "activation_6", "dtype": "float32", "trainable": true}, "class_name": "Activation", "inbound_nodes": [[["add_1", 0, 0, {}]]]}, {"name": "res2c_branch2a", "config": {"bias_constraint": null, "strides": [1, 1], "kernel_initializer": {"config": {"distribution": "truncated_normal", "seed": null, "dtype": "float32", "scale": 2.0, "mode": "fan_in"}, "class_name": "VarianceScaling"}, "dilation_rate": [1, 1], "use_bias": true, "dtype": "float32", "kernel_size": [1, 1], "activation": "linear", "kernel_constraint": null, "filters": 64, "activity_regularizer": null, "data_format": "channels_last", "name": "res2c_branch2a", "bias_regularizer": null, "bias_initializer": {"config": {"dtype": "float32"}, "class_name": "Zeros"}, "kernel_regularizer": null, "padding": "valid", "trainable": true}, "class_name": "Conv2D", "inbound_nodes": [[["activation_6", 0, 0, {}]]]}, {"name": "bn2c_branch2a", "config": {"momentum": 0.99, "beta_initializer": {"config": {"dtype": "float32"}, "class_name": "Zeros"}, "axis": [3], "gamma_regularizer": null, "dtype": "float32", "center": true, "scale": true, "beta_constraint": null, "gamma_constraint": null, "moving_mean_initializer": {"config": {"dtype": "float32"}, "class_name": "Zeros"}, "gamma_initializer": {"config": {"dtype": "float32"}, "class_name": "Ones"}, "name": "bn2c_branch2a", "beta_regularizer": null, "moving_variance_initializer": {"config": {"dtype": "float32"}, "class_name": "Ones"}, "epsilon": 0.001, "trainable": true}, "class_name": "BatchNormalization", "inbound_nodes": [[["res2c_branch2a", 0, 0, {}]]]}, {"name": "activation_7", "config": {"activation": "relu", "name": "activation_7", "dtype": "float32", "trainable": true}, "class_name": "Activation", "inbound_nodes": [[["bn2c_branch2a", 0, 0, {}]]]}, {"name": "res2c_branch2b", "config": {"bias_constraint": null, "strides": [1, 1], "kernel_initializer": {"config": {"distribution": "truncated_normal", "seed": null, "dtype": "float32", "scale": 2.0, "mode": "fan_in"}, "class_name": "VarianceScaling"}, "dilation_rate": [1, 1], "use_bias": true, "dtype": "float32", "kernel_size": [3, 3], "activation": "linear", "kernel_constraint": null, "filters": 64, "activity_regularizer": null, "data_format": "channels_last", "name": "res2c_branch2b", "bias_regularizer": null, "bias_initializer": {"config": {"dtype": "float32"}, "class_name": "Zeros"}, "kernel_regularizer": null, "padding": "same", "trainable": true}, "class_name": "Conv2D", "inbound_nodes": [[["activation_7", 0, 0, {}]]]}, {"name": "bn2c_branch2b", "config": {"momentum": 0.99, "beta_initializer": {"config": {"dtype": "float32"}, "class_name": "Zeros"}, "axis": [3], "gamma_regularizer": null, "dtype": "float32", "center": true, "scale": true, "beta_constraint": null, "gamma_constraint": null, "moving_mean_initializer": {"config": {"dtype": "float32"}, "class_name": "Zeros"}, "gamma_initializer": {"config": {"dtype": "float32"}, "class_name": "Ones"}, "name": "bn2c_branch2b", "beta_regularizer": null, "moving_variance_initializer": {"config": {"dtype": "float32"}, "class_name": "Ones"}, "epsilon": 0.001, "trainable": true}, "class_name": "BatchNormalization", "inbound_nodes": [[["res2c_branch2b", 0, 0, {}]]]}, {"name": "activation_8", "config": {"activation": "relu", "name": "activation_8", "dtype": "float32", "trainable": true}, "class_name": "Activation", "inbound_nodes": [[["bn2c_branch2b", 0, 0, {}]]]}, {"name": "res2c_branch2c", "config": {"bias_constraint": null, "strides": [1, 1], "kernel_initializer": {"config": {"distribution": "truncated_normal", "seed": null, "dtype": "float32", "scale": 2.0, "mode": "fan_in"}, "class_name": "VarianceScaling"}, "dilation_rate": [1, 1], "use_bias": true, "dtype": "float32", "kernel_size": [1, 1], "activation": "linear", "kernel_constraint": null, "filters": 256, "activity_regularizer": null, "data_format": "channels_last", "name": "res2c_branch2c", "bias_regularizer": null, "bias_initializer": {"config": {"dtype": "float32"}, "class_name": "Zeros"}, "kernel_regularizer": null, "padding": "valid", "trainable": true}, "class_name": "Conv2D", "inbound_nodes": [[["activation_8", 0, 0, {}]]]}, {"name": "bn2c_branch2c", "config": {"momentum": 0.99, "beta_initializer": {"config": {"dtype": "float32"}, "class_name": "Zeros"}, "axis": [3], "gamma_regularizer": null, "dtype": "float32", "center": true, "scale": true, "beta_constraint": null, "gamma_constraint": null, "moving_mean_initializer": {"config": {"dtype": "float32"}, "class_name": "Zeros"}, "gamma_initializer": {"config": {"dtype": "float32"}, "class_name": "Ones"}, "name": "bn2c_branch2c", "beta_regularizer": null, "moving_variance_initializer": {"config": {"dtype": "float32"}, "class_name": "Ones"}, "epsilon": 0.001, "trainable": true}, "class_name": "BatchNormalization", "inbound_nodes": [[["res2c_branch2c", 0, 0, {}]]]}, {"name": "add_2", "config": {"name": "add_2", "dtype": "float32", "trainable": true}, "class_name": "Add", "inbound_nodes": [[["bn2c_branch2c", 0, 0, {}], ["activation_6", 0, 0, {}]]]}, {"name": "activation_9", "config": {"activation": "relu", "name": "activation_9", "dtype": "float32", "trainable": true}, "class_name": "Activation", "inbound_nodes": [[["add_2", 0, 0, {}]]]}, {"name": "res3a_branch2a", "config": {"bias_constraint": null, "strides": [2, 2], "kernel_initializer": {"config": {"distribution": "truncated_normal", "seed": null, "dtype": "float32", "scale": 2.0, "mode": "fan_in"}, "class_name": "VarianceScaling"}, "dilation_rate": [1, 1], "use_bias": true, "dtype": "float32", "kernel_size": [1, 1], "activation": "linear", "kernel_constraint": null, "filters": 128, "activity_regularizer": null, "data_format": "channels_last", "name": "res3a_branch2a", "bias_regularizer": null, "bias_initializer": {"config": {"dtype": "float32"}, "class_name": "Zeros"}, "kernel_regularizer": null, "padding": "valid", "trainable": true}, "class_name": "Conv2D", "inbound_nodes": [[["activation_9", 0, 0, {}]]]}, {"name": "bn3a_branch2a", "config": {"momentum": 0.99, "beta_initializer": {"config": {"dtype": "float32"}, "class_name": "Zeros"}, "axis": [3], "gamma_regularizer": null, "dtype": "float32", "center": true, "scale": true, "beta_constraint": null, "gamma_constraint": null, "moving_mean_initializer": {"config": {"dtype": "float32"}, "class_name": "Zeros"}, "gamma_initializer": {"config": {"dtype": "float32"}, "class_name": "Ones"}, "name": "bn3a_branch2a", "beta_regularizer": null, "moving_variance_initializer": {"config": {"dtype": "float32"}, "class_name": "Ones"}, "epsilon": 0.001, "trainable": true}, "class_name": "BatchNormalization", "inbound_nodes": [[["res3a_branch2a", 0, 0, {}]]]}, {"name": "activation_10", "config": {"activation": "relu", "name": "activation_10", "dtype": "float32", "trainable": true}, "class_name": "Activation", "inbound_nodes": [[["bn3a_branch2a", 0, 0, {}]]]}, {"name": "res3a_branch2b", "config": {"bias_constraint": null, "strides": [1, 1], "kernel_initializer": {"config": {"distribution": "truncated_normal", "seed": null, "dtype": "float32", "scale": 2.0, "mode": "fan_in"}, "class_name": "VarianceScaling"}, "dilation_rate": [1, 1], "use_bias": true, "dtype": "float32", "kernel_size": [3, 3], "activation": "linear", "kernel_constraint": null, "filters": 128, "activity_regularizer": null, "data_format": "channels_last", "name": "res3a_branch2b", "bias_regularizer": null, "bias_initializer": {"config": {"dtype": "float32"}, "class_name": "Zeros"}, "kernel_regularizer": null, "padding": "same", "trainable": true}, "class_name": "Conv2D", "inbound_nodes": [[["activation_10", 0, 0, {}]]]}, {"name": "bn3a_branch2b", "config": {"momentum": 0.99, "beta_initializer": {"config": {"dtype": "float32"}, "class_name": "Zeros"}, "axis": [3], "gamma_regularizer": null, "dtype": "float32", "center": true, "scale": true, "beta_constraint": null, "gamma_constraint": null, "moving_mean_initializer": {"config": {"dtype": "float32"}, "class_name": "Zeros"}, "gamma_initializer": {"config": {"dtype": "float32"}, "class_name": "Ones"}, "name": "bn3a_branch2b", "beta_regularizer": null, "moving_variance_initializer": {"config": {"dtype": "float32"}, "class_name": "Ones"}, "epsilon": 0.001, "trainable": true}, "class_name": "BatchNormalization", "inbound_nodes": [[["res3a_branch2b", 0, 0, {}]]]}, {"name": "activation_11", "config": {"activation": "relu", "name": "activation_11", "dtype": "float32", "trainable": true}, "class_name": "Activation", "inbound_nodes": [[["bn3a_branch2b", 0, 0, {}]]]}, {"name": "res3a_branch2c", "config": {"bias_constraint": null, "strides": [1, 1], "kernel_initializer": {"config": {"distribution": "truncated_normal", "seed": null, "dtype": "float32", "scale": 2.0, "mode": "fan_in"}, "class_name": "VarianceScaling"}, "dilation_rate": [1, 1], "use_bias": true, "dtype": "float32", "kernel_size": [1, 1], "activation": "linear", "kernel_constraint": null, "filters": 512, "activity_regularizer": null, "data_format": "channels_last", "name": "res3a_branch2c", "bias_regularizer": null, "bias_initializer": {"config": {"dtype": "float32"}, "class_name": "Zeros"}, "kernel_regularizer": null, "padding": "valid", "trainable": true}, "class_name": "Conv2D", "inbound_nodes": [[["activation_11", 0, 0, {}]]]}, {"name": "res3a_branch1", "config": {"bias_constraint": null, "strides": [2, 2], "kernel_initializer": {"config": {"distribution": "truncated_normal", "seed": null, "dtype": "float32", "scale": 2.0, "mode": "fan_in"}, "class_name": "VarianceScaling"}, "dilation_rate": [1, 1], "use_bias": true, "dtype": "float32", "kernel_size": [1, 1], "activation": "linear", "kernel_constraint": null, "filters": 512, "activity_regularizer": null, "data_format": "channels_last", "name": "res3a_branch1", "bias_regularizer": null, "bias_initializer": {"config": {"dtype": "float32"}, "class_name": "Zeros"}, "kernel_regularizer": null, "padding": "valid", "trainable": true}, "class_name": "Conv2D", "inbound_nodes": [[["activation_9", 0, 0, {}]]]}, {"name": "bn3a_branch2c", "config": {"momentum": 0.99, "beta_initializer": {"config": {"dtype": "float32"}, "class_name": "Zeros"}, "axis": [3], "gamma_regularizer": null, "dtype": "float32", "center": true, "scale": true, "beta_constraint": null, "gamma_constraint": null, "moving_mean_initializer": {"config": {"dtype": "float32"}, "class_name": "Zeros"}, "gamma_initializer": {"config": {"dtype": "float32"}, "class_name": "Ones"}, "name": "bn3a_branch2c", "beta_regularizer": null, "moving_variance_initializer": {"config": {"dtype": "float32"}, "class_name": "Ones"}, "epsilon": 0.001, "trainable": true}, "class_name": "BatchNormalization", "inbound_nodes": [[["res3a_branch2c", 0, 0, {}]]]}, {"name": "bn3a_branch1", "config": {"momentum": 0.99, "beta_initializer": {"config": {"dtype": "float32"}, "class_name": "Zeros"}, "axis": [3], "gamma_regularizer": null, "dtype": "float32", "center": true, "scale": true, "beta_constraint": null, "gamma_constraint": null, "moving_mean_initializer": {"config": {"dtype": "float32"}, "class_name": "Zeros"}, "gamma_initializer": {"config": {"dtype": "float32"}, "class_name": "Ones"}, "name": "bn3a_branch1", "beta_regularizer": null, "moving_variance_initializer": {"config": {"dtype": "float32"}, "class_name": "Ones"}, "epsilon": 0.001, "trainable": true}, "class_name": "BatchNormalization", "inbound_nodes": [[["res3a_branch1", 0, 0, {}]]]}, {"name": "add_3", "config": {"name": "add_3", "dtype": "float32", "trainable": true}, "class_name": "Add", "inbound_nodes": [[["bn3a_branch2c", 0, 0, {}], ["bn3a_branch1", 0, 0, {}]]]}, {"name": "activation_12", "config": {"activation": "relu", "name": "activation_12", "dtype": "float32", "trainable": true}, "class_name": "Activation", "inbound_nodes": [[["add_3", 0, 0, {}]]]}, {"name": "res3b_branch2a", "config": {"bias_constraint": null, "strides": [1, 1], "kernel_initializer": {"config": {"distribution": "truncated_normal", "seed": null, "dtype": "float32", "scale": 2.0, "mode": "fan_in"}, "class_name": "VarianceScaling"}, "dilation_rate": [1, 1], "use_bias": true, "dtype": "float32", "kernel_size": [1, 1], "activation": "linear", "kernel_constraint": null, "filters": 128, "activity_regularizer": null, "data_format": "channels_last", "name": "res3b_branch2a", "bias_regularizer": null, "bias_initializer": {"config": {"dtype": "float32"}, "class_name": "Zeros"}, "kernel_regularizer": null, "padding": "valid", "trainable": true}, "class_name": "Conv2D", "inbound_nodes": [[["activation_12", 0, 0, {}]]]}, {"name": "bn3b_branch2a", "config": {"momentum": 0.99, "beta_initializer": {"config": {"dtype": "float32"}, "class_name": "Zeros"}, "axis": [3], "gamma_regularizer": null, "dtype": "float32", "center": true, "scale": true, "beta_constraint": null, "gamma_constraint": null, "moving_mean_initializer": {"config": {"dtype": "float32"}, "class_name": "Zeros"}, "gamma_initializer": {"config": {"dtype": "float32"}, "class_name": "Ones"}, "name": "bn3b_branch2a", "beta_regularizer": null, "moving_variance_initializer": {"config": {"dtype": "float32"}, "class_name": "Ones"}, "epsilon": 0.001, "trainable": true}, "class_name": "BatchNormalization", "inbound_nodes": [[["res3b_branch2a", 0, 0, {}]]]}, {"name": "activation_13", "config": {"activation": "relu", "name": "activation_13", "dtype": "float32", "trainable": true}, "class_name": "Activation", "inbound_nodes": [[["bn3b_branch2a", 0, 0, {}]]]}, {"name": "res3b_branch2b", "config": {"bias_constraint": null, "strides": [1, 1], "kernel_initializer": {"config": {"distribution": "truncated_normal", "seed": null, "dtype": "float32", "scale": 2.0, "mode": "fan_in"}, "class_name": "VarianceScaling"}, "dilation_rate": [1, 1], "use_bias": true, "dtype": "float32", "kernel_size": [3, 3], "activation": "linear", "kernel_constraint": null, "filters": 128, "activity_regularizer": null, "data_format": "channels_last", "name": "res3b_branch2b", "bias_regularizer": null, "bias_initializer": {"config": {"dtype": "float32"}, "class_name": "Zeros"}, "kernel_regularizer": null, "padding": "same", "trainable": true}, "class_name": "Conv2D", "inbound_nodes": [[["activation_13", 0, 0, {}]]]}, {"name": "bn3b_branch2b", "config": {"momentum": 0.99, "beta_initializer": {"config": {"dtype": "float32"}, "class_name": "Zeros"}, "axis": [3], "gamma_regularizer": null, "dtype": "float32", "center": true, "scale": true, "beta_constraint": null, "gamma_constraint": null, "moving_mean_initializer": {"config": {"dtype": "float32"}, "class_name": "Zeros"}, "gamma_initializer": {"config": {"dtype": "float32"}, "class_name": "Ones"}, "name": "bn3b_branch2b", "beta_regularizer": null, "moving_variance_initializer": {"config": {"dtype": "float32"}, "class_name": "Ones"}, "epsilon": 0.001, "trainable": true}, "class_name": "BatchNormalization", "inbound_nodes": [[["res3b_branch2b", 0, 0, {}]]]}, {"name": "activation_14", "config": {"activation": "relu", "name": "activation_14", "dtype": "float32", "trainable": true}, "class_name": "Activation", "inbound_nodes": [[["bn3b_branch2b", 0, 0, {}]]]}, {"name": "res3b_branch2c", "config": {"bias_constraint": null, "strides": [1, 1], "kernel_initializer": {"config": {"distribution": "truncated_normal", "seed": null, "dtype": "float32", "scale": 2.0, "mode": "fan_in"}, "class_name": "VarianceScaling"}, "dilation_rate": [1, 1], "use_bias": true, "dtype": "float32", "kernel_size": [1, 1], "activation": "linear", "kernel_constraint": null, "filters": 512, "activity_regularizer": null, "data_format": "channels_last", "name": "res3b_branch2c", "bias_regularizer": null, "bias_initializer": {"config": {"dtype": "float32"}, "class_name": "Zeros"}, "kernel_regularizer": null, "padding": "valid", "trainable": true}, "class_name": "Conv2D", "inbound_nodes": [[["activation_14", 0, 0, {}]]]}, {"name": "bn3b_branch2c", "config": {"momentum": 0.99, "beta_initializer": {"config": {"dtype": "float32"}, "class_name": "Zeros"}, "axis": [3], "gamma_regularizer": null, "dtype": "float32", "center": true, "scale": true, "beta_constraint": null, "gamma_constraint": null, "moving_mean_initializer": {"config": {"dtype": "float32"}, "class_name": "Zeros"}, "gamma_initializer": {"config": {"dtype": "float32"}, "class_name": "Ones"}, "name": "bn3b_branch2c", "beta_regularizer": null, "moving_variance_initializer": {"config": {"dtype": "float32"}, "class_name": "Ones"}, "epsilon": 0.001, "trainable": true}, "class_name": "BatchNormalization", "inbound_nodes": [[["res3b_branch2c", 0, 0, {}]]]}, {"name": "add_4", "config": {"name": "add_4", "dtype": "float32", "trainable": true}, "class_name": "Add", "inbound_nodes": [[["bn3b_branch2c", 0, 0, {}], ["activation_12", 0, 0, {}]]]}, {"name": "activation_15", "config": {"activation": "relu", "name": "activation_15", "dtype": "float32", "trainable": true}, "class_name": "Activation", "inbound_nodes": [[["add_4", 0, 0, {}]]]}, {"name": "res3c_branch2a", "config": {"bias_constraint": null, "strides": [1, 1], "kernel_initializer": {"config": {"distribution": "truncated_normal", "seed": null, "dtype": "float32", "scale": 2.0, "mode": "fan_in"}, "class_name": "VarianceScaling"}, "dilation_rate": [1, 1], "use_bias": true, "dtype": "float32", "kernel_size": [1, 1], "activation": "linear", "kernel_constraint": null, "filters": 128, "activity_regularizer": null, "data_format": "channels_last", "name": "res3c_branch2a", "bias_regularizer": null, "bias_initializer": {"config": {"dtype": "float32"}, "class_name": "Zeros"}, "kernel_regularizer": null, "padding": "valid", "trainable": true}, "class_name": "Conv2D", "inbound_nodes": [[["activation_15", 0, 0, {}]]]}, {"name": "bn3c_branch2a", "config": {"momentum": 0.99, "beta_initializer": {"config": {"dtype": "float32"}, "class_name": "Zeros"}, "axis": [3], "gamma_regularizer": null, "dtype": "float32", "center": true, "scale": true, "beta_constraint": null, "gamma_constraint": null, "moving_mean_initializer": {"config": {"dtype": "float32"}, "class_name": "Zeros"}, "gamma_initializer": {"config": {"dtype": "float32"}, "class_name": "Ones"}, "name": "bn3c_branch2a", "beta_regularizer": null, "moving_variance_initializer": {"config": {"dtype": "float32"}, "class_name": "Ones"}, "epsilon": 0.001, "trainable": true}, "class_name": "BatchNormalization", "inbound_nodes": [[["res3c_branch2a", 0, 0, {}]]]}, {"name": "activation_16", "config": {"activation": "relu", "name": "activation_16", "dtype": "float32", "trainable": true}, "class_name": "Activation", "inbound_nodes": [[["bn3c_branch2a", 0, 0, {}]]]}, {"name": "res3c_branch2b", "config": {"bias_constraint": null, "strides": [1, 1], "kernel_initializer": {"config": {"distribution": "truncated_normal", "seed": null, "dtype": "float32", "scale": 2.0, "mode": "fan_in"}, "class_name": "VarianceScaling"}, "dilation_rate": [1, 1], "use_bias": true, "dtype": "float32", "kernel_size": [3, 3], "activation": "linear", "kernel_constraint": null, "filters": 128, "activity_regularizer": null, "data_format": "channels_last", "name": "res3c_branch2b", "bias_regularizer": null, "bias_initializer": {"config": {"dtype": "float32"}, "class_name": "Zeros"}, "kernel_regularizer": null, "padding": "same", "trainable": true}, "class_name": "Conv2D", "inbound_nodes": [[["activation_16", 0, 0, {}]]]}, {"name": "bn3c_branch2b", "config": {"momentum": 0.99, "beta_initializer": {"config": {"dtype": "float32"}, "class_name": "Zeros"}, "axis": [3], "gamma_regularizer": null, "dtype": "float32", "center": true, "scale": true, "beta_constraint": null, "gamma_constraint": null, "moving_mean_initializer": {"config": {"dtype": "float32"}, "class_name": "Zeros"}, "gamma_initializer": {"config": {"dtype": "float32"}, "class_name": "Ones"}, "name": "bn3c_branch2b", "beta_regularizer": null, "moving_variance_initializer": {"config": {"dtype": "float32"}, "class_name": "Ones"}, "epsilon": 0.001, "trainable": true}, "class_name": "BatchNormalization", "inbound_nodes": [[["res3c_branch2b", 0, 0, {}]]]}, {"name": "activation_17", "config": {"activation": "relu", "name": "activation_17", "dtype": "float32", "trainable": true}, "class_name": "Activation", "inbound_nodes": [[["bn3c_branch2b", 0, 0, {}]]]}, {"name": "res3c_branch2c", "config": {"bias_constraint": null, "strides": [1, 1], "kernel_initializer": {"config": {"distribution": "truncated_normal", "seed": null, "dtype": "float32", "scale": 2.0, "mode": "fan_in"}, "class_name": "VarianceScaling"}, "dilation_rate": [1, 1], "use_bias": true, "dtype": "float32", "kernel_size": [1, 1], "activation": "linear", "kernel_constraint": null, "filters": 512, "activity_regularizer": null, "data_format": "channels_last", "name": "res3c_branch2c", "bias_regularizer": null, "bias_initializer": {"config": {"dtype": "float32"}, "class_name": "Zeros"}, "kernel_regularizer": null, "padding": "valid", "trainable": true}, "class_name": "Conv2D", "inbound_nodes": [[["activation_17", 0, 0, {}]]]}, {"name": "bn3c_branch2c", "config": {"momentum": 0.99, "beta_initializer": {"config": {"dtype": "float32"}, "class_name": "Zeros"}, "axis": [3], "gamma_regularizer": null, "dtype": "float32", "center": true, "scale": true, "beta_constraint": null, "gamma_constraint": null, "moving_mean_initializer": {"config": {"dtype": "float32"}, "class_name": "Zeros"}, "gamma_initializer": {"config": {"dtype": "float32"}, "class_name": "Ones"}, "name": "bn3c_branch2c", "beta_regularizer": null, "moving_variance_initializer": {"config": {"dtype": "float32"}, "class_name": "Ones"}, "epsilon": 0.001, "trainable": true}, "class_name": "BatchNormalization", "inbound_nodes": [[["res3c_branch2c", 0, 0, {}]]]}, {"name": "add_5", "config": {"name": "add_5", "dtype": "float32", "trainable": true}, "class_name": "Add", "inbound_nodes": [[["bn3c_branch2c", 0, 0, {}], ["activation_15", 0, 0, {}]]]}, {"name": "activation_18", "config": {"activation": "relu", "name": "activation_18", "dtype": "float32", "trainable": true}, "class_name": "Activation", "inbound_nodes": [[["add_5", 0, 0, {}]]]}, {"name": "res3d_branch2a", "config": {"bias_constraint": null, "strides": [1, 1], "kernel_initializer": {"config": {"distribution": "truncated_normal", "seed": null, "dtype": "float32", "scale": 2.0, "mode": "fan_in"}, "class_name": "VarianceScaling"}, "dilation_rate": [1, 1], "use_bias": true, "dtype": "float32", "kernel_size": [1, 1], "activation": "linear", "kernel_constraint": null, "filters": 128, "activity_regularizer": null, "data_format": "channels_last", "name": "res3d_branch2a", "bias_regularizer": null, "bias_initializer": {"config": {"dtype": "float32"}, "class_name": "Zeros"}, "kernel_regularizer": null, "padding": "valid", "trainable": true}, "class_name": "Conv2D", "inbound_nodes": [[["activation_18", 0, 0, {}]]]}, {"name": "bn3d_branch2a", "config": {"momentum": 0.99, "beta_initializer": {"config": {"dtype": "float32"}, "class_name": "Zeros"}, "axis": [3], "gamma_regularizer": null, "dtype": "float32", "center": true, "scale": true, "beta_constraint": null, "gamma_constraint": null, "moving_mean_initializer": {"config": {"dtype": "float32"}, "class_name": "Zeros"}, "gamma_initializer": {"config": {"dtype": "float32"}, "class_name": "Ones"}, "name": "bn3d_branch2a", "beta_regularizer": null, "moving_variance_initializer": {"config": {"dtype": "float32"}, "class_name": "Ones"}, "epsilon": 0.001, "trainable": true}, "class_name": "BatchNormalization", "inbound_nodes": [[["res3d_branch2a", 0, 0, {}]]]}, {"name": "activation_19", "config": {"activation": "relu", "name": "activation_19", "dtype": "float32", "trainable": true}, "class_name": "Activation", "inbound_nodes": [[["bn3d_branch2a", 0, 0, {}]]]}, {"name": "res3d_branch2b", "config": {"bias_constraint": null, "strides": [1, 1], "kernel_initializer": {"config": {"distribution": "truncated_normal", "seed": null, "dtype": "float32", "scale": 2.0, "mode": "fan_in"}, "class_name": "VarianceScaling"}, "dilation_rate": [1, 1], "use_bias": true, "dtype": "float32", "kernel_size": [3, 3], "activation": "linear", "kernel_constraint": null, "filters": 128, "activity_regularizer": null, "data_format": "channels_last", "name": "res3d_branch2b", "bias_regularizer": null, "bias_initializer": {"config": {"dtype": "float32"}, "class_name": "Zeros"}, "kernel_regularizer": null, "padding": "same", "trainable": true}, "class_name": "Conv2D", "inbound_nodes": [[["activation_19", 0, 0, {}]]]}, {"name": "bn3d_branch2b", "config": {"momentum": 0.99, "beta_initializer": {"config": {"dtype": "float32"}, "class_name": "Zeros"}, "axis": [3], "gamma_regularizer": null, "dtype": "float32", "center": true, "scale": true, "beta_constraint": null, "gamma_constraint": null, "moving_mean_initializer": {"config": {"dtype": "float32"}, "class_name": "Zeros"}, "gamma_initializer": {"config": {"dtype": "float32"}, "class_name": "Ones"}, "name": "bn3d_branch2b", "beta_regularizer": null, "moving_variance_initializer": {"config": {"dtype": "float32"}, "class_name": "Ones"}, "epsilon": 0.001, "trainable": true}, "class_name": "BatchNormalization", "inbound_nodes": [[["res3d_branch2b", 0, 0, {}]]]}, {"name": "activation_20", "config": {"activation": "relu", "name": "activation_20", "dtype": "float32", "trainable": true}, "class_name": "Activation", "inbound_nodes": [[["bn3d_branch2b", 0, 0, {}]]]}, {"name": "res3d_branch2c", "config": {"bias_constraint": null, "strides": [1, 1], "kernel_initializer": {"config": {"distribution": "truncated_normal", "seed": null, "dtype": "float32", "scale": 2.0, "mode": "fan_in"}, "class_name": "VarianceScaling"}, "dilation_rate": [1, 1], "use_bias": true, "dtype": "float32", "kernel_size": [1, 1], "activation": "linear", "kernel_constraint": null, "filters": 512, "activity_regularizer": null, "data_format": "channels_last", "name": "res3d_branch2c", "bias_regularizer": null, "bias_initializer": {"config": {"dtype": "float32"}, "class_name": "Zeros"}, "kernel_regularizer": null, "padding": "valid", "trainable": true}, "class_name": "Conv2D", "inbound_nodes": [[["activation_20", 0, 0, {}]]]}, {"name": "bn3d_branch2c", "config": {"momentum": 0.99, "beta_initializer": {"config": {"dtype": "float32"}, "class_name": "Zeros"}, "axis": [3], "gamma_regularizer": null, "dtype": "float32", "center": true, "scale": true, "beta_constraint": null, "gamma_constraint": null, "moving_mean_initializer": {"config": {"dtype": "float32"}, "class_name": "Zeros"}, "gamma_initializer": {"config": {"dtype": "float32"}, "class_name": "Ones"}, "name": "bn3d_branch2c", "beta_regularizer": null, "moving_variance_initializer": {"config": {"dtype": "float32"}, "class_name": "Ones"}, "epsilon": 0.001, "trainable": true}, "class_name": "BatchNormalization", "inbound_nodes": [[["res3d_branch2c", 0, 0, {}]]]}, {"name": "add_6", "config": {"name": "add_6", "dtype": "float32", "trainable": true}, "class_name": "Add", "inbound_nodes": [[["bn3d_branch2c", 0, 0, {}], ["activation_18", 0, 0, {}]]]}, {"name": "activation_21", "config": {"activation": "relu", "name": "activation_21", "dtype": "float32", "trainable": true}, "class_name": "Activation", "inbound_nodes": [[["add_6", 0, 0, {}]]]}, {"name": "res4a_branch2a", "config": {"bias_constraint": null, "strides": [2, 2], "kernel_initializer": {"config": {"distribution": "truncated_normal", "seed": null, "dtype": "float32", "scale": 2.0, "mode": "fan_in"}, "class_name": "VarianceScaling"}, "dilation_rate": [1, 1], "use_bias": true, "dtype": "float32", "kernel_size": [1, 1], "activation": "linear", "kernel_constraint": null, "filters": 256, "activity_regularizer": null, "data_format": "channels_last", "name": "res4a_branch2a", "bias_regularizer": null, "bias_initializer": {"config": {"dtype": "float32"}, "class_name": "Zeros"}, "kernel_regularizer": null, "padding": "valid", "trainable": true}, "class_name": "Conv2D", "inbound_nodes": [[["activation_21", 0, 0, {}]]]}, {"name": "bn4a_branch2a", "config": {"momentum": 0.99, "beta_initializer": {"config": {"dtype": "float32"}, "class_name": "Zeros"}, "axis": [3], "gamma_regularizer": null, "dtype": "float32", "center": true, "scale": true, "beta_constraint": null, "gamma_constraint": null, "moving_mean_initializer": {"config": {"dtype": "float32"}, "class_name": "Zeros"}, "gamma_initializer": {"config": {"dtype": "float32"}, "class_name": "Ones"}, "name": "bn4a_branch2a", "beta_regularizer": null, "moving_variance_initializer": {"config": {"dtype": "float32"}, "class_name": "Ones"}, "epsilon": 0.001, "trainable": true}, "class_name": "BatchNormalization", "inbound_nodes": [[["res4a_branch2a", 0, 0, {}]]]}, {"name": "activation_22", "config": {"activation": "relu", "name": "activation_22", "dtype": "float32", "trainable": true}, "class_name": "Activation", "inbound_nodes": [[["bn4a_branch2a", 0, 0, {}]]]}, {"name": "res4a_branch2b", "config": {"bias_constraint": null, "strides": [1, 1], "kernel_initializer": {"config": {"distribution": "truncated_normal", "seed": null, "dtype": "float32", "scale": 2.0, "mode": "fan_in"}, "class_name": "VarianceScaling"}, "dilation_rate": [1, 1], "use_bias": true, "dtype": "float32", "kernel_size": [3, 3], "activation": "linear", "kernel_constraint": null, "filters": 256, "activity_regularizer": null, "data_format": "channels_last", "name": "res4a_branch2b", "bias_regularizer": null, "bias_initializer": {"config": {"dtype": "float32"}, "class_name": "Zeros"}, "kernel_regularizer": null, "padding": "same", "trainable": true}, "class_name": "Conv2D", "inbound_nodes": [[["activation_22", 0, 0, {}]]]}, {"name": "bn4a_branch2b", "config": {"momentum": 0.99, "beta_initializer": {"config": {"dtype": "float32"}, "class_name": "Zeros"}, "axis": [3], "gamma_regularizer": null, "dtype": "float32", "center": true, "scale": true, "beta_constraint": null, "gamma_constraint": null, "moving_mean_initializer": {"config": {"dtype": "float32"}, "class_name": "Zeros"}, "gamma_initializer": {"config": {"dtype": "float32"}, "class_name": "Ones"}, "name": "bn4a_branch2b", "beta_regularizer": null, "moving_variance_initializer": {"config": {"dtype": "float32"}, "class_name": "Ones"}, "epsilon": 0.001, "trainable": true}, "class_name": "BatchNormalization", "inbound_nodes": [[["res4a_branch2b", 0, 0, {}]]]}, {"name": "activation_23", "config": {"activation": "relu", "name": "activation_23", "dtype": "float32", "trainable": true}, "class_name": "Activation", "inbound_nodes": [[["bn4a_branch2b", 0, 0, {}]]]}, {"name": "res4a_branch2c", "config": {"bias_constraint": null, "strides": [1, 1], "kernel_initializer": {"config": {"distribution": "truncated_normal", "seed": null, "dtype": "float32", "scale": 2.0, "mode": "fan_in"}, "class_name": "VarianceScaling"}, "dilation_rate": [1, 1], "use_bias": true, "dtype": "float32", "kernel_size": [1, 1], "activation": "linear", "kernel_constraint": null, "filters": 1024, "activity_regularizer": null, "data_format": "channels_last", "name": "res4a_branch2c", "bias_regularizer": null, "bias_initializer": {"config": {"dtype": "float32"}, "class_name": "Zeros"}, "kernel_regularizer": null, "padding": "valid", "trainable": true}, "class_name": "Conv2D", "inbound_nodes": [[["activation_23", 0, 0, {}]]]}, {"name": "res4a_branch1", "config": {"bias_constraint": null, "strides": [2, 2], "kernel_initializer": {"config": {"distribution": "truncated_normal", "seed": null, "dtype": "float32", "scale": 2.0, "mode": "fan_in"}, "class_name": "VarianceScaling"}, "dilation_rate": [1, 1], "use_bias": true, "dtype": "float32", "kernel_size": [1, 1], "activation": "linear", "kernel_constraint": null, "filters": 1024, "activity_regularizer": null, "data_format": "channels_last", "name": "res4a_branch1", "bias_regularizer": null, "bias_initializer": {"config": {"dtype": "float32"}, "class_name": "Zeros"}, "kernel_regularizer": null, "padding": "valid", "trainable": true}, "class_name": "Conv2D", "inbound_nodes": [[["activation_21", 0, 0, {}]]]}, {"name": "bn4a_branch2c", "config": {"momentum": 0.99, "beta_initializer": {"config": {"dtype": "float32"}, "class_name": "Zeros"}, "axis": [3], "gamma_regularizer": null, "dtype": "float32", "center": true, "scale": true, "beta_constraint": null, "gamma_constraint": null, "moving_mean_initializer": {"config": {"dtype": "float32"}, "class_name": "Zeros"}, "gamma_initializer": {"config": {"dtype": "float32"}, "class_name": "Ones"}, "name": "bn4a_branch2c", "beta_regularizer": null, "moving_variance_initializer": {"config": {"dtype": "float32"}, "class_name": "Ones"}, "epsilon": 0.001, "trainable": true}, "class_name": "BatchNormalization", "inbound_nodes": [[["res4a_branch2c", 0, 0, {}]]]}, {"name": "bn4a_branch1", "config": {"momentum": 0.99, "beta_initializer": {"config": {"dtype": "float32"}, "class_name": "Zeros"}, "axis": [3], "gamma_regularizer": null, "dtype": "float32", "center": true, "scale": true, "beta_constraint": null, "gamma_constraint": null, "moving_mean_initializer": {"config": {"dtype": "float32"}, "class_name": "Zeros"}, "gamma_initializer": {"config": {"dtype": "float32"}, "class_name": "Ones"}, "name": "bn4a_branch1", "beta_regularizer": null, "moving_variance_initializer": {"config": {"dtype": "float32"}, "class_name": "Ones"}, "epsilon": 0.001, "trainable": true}, "class_name": "BatchNormalization", "inbound_nodes": [[["res4a_branch1", 0, 0, {}]]]}, {"name": "add_7", "config": {"name": "add_7", "dtype": "float32", "trainable": true}, "class_name": "Add", "inbound_nodes": [[["bn4a_branch2c", 0, 0, {}], ["bn4a_branch1", 0, 0, {}]]]}, {"name": "activation_24", "config": {"activation": "relu", "name": "activation_24", "dtype": "float32", "trainable": true}, "class_name": "Activation", "inbound_nodes": [[["add_7", 0, 0, {}]]]}, {"name": "res4b_branch2a", "config": {"bias_constraint": null, "strides": [1, 1], "kernel_initializer": {"config": {"distribution": "truncated_normal", "seed": null, "dtype": "float32", "scale": 2.0, "mode": "fan_in"}, "class_name": "VarianceScaling"}, "dilation_rate": [1, 1], "use_bias": true, "dtype": "float32", "kernel_size": [1, 1], "activation": "linear", "kernel_constraint": null, "filters": 256, "activity_regularizer": null, "data_format": "channels_last", "name": "res4b_branch2a", "bias_regularizer": null, "bias_initializer": {"config": {"dtype": "float32"}, "class_name": "Zeros"}, "kernel_regularizer": null, "padding": "valid", "trainable": true}, "class_name": "Conv2D", "inbound_nodes": [[["activation_24", 0, 0, {}]]]}, {"name": "bn4b_branch2a", "config": {"momentum": 0.99, "beta_initializer": {"config": {"dtype": "float32"}, "class_name": "Zeros"}, "axis": [3], "gamma_regularizer": null, "dtype": "float32", "center": true, "scale": true, "beta_constraint": null, "gamma_constraint": null, "moving_mean_initializer": {"config": {"dtype": "float32"}, "class_name": "Zeros"}, "gamma_initializer": {"config": {"dtype": "float32"}, "class_name": "Ones"}, "name": "bn4b_branch2a", "beta_regularizer": null, "moving_variance_initializer": {"config": {"dtype": "float32"}, "class_name": "Ones"}, "epsilon": 0.001, "trainable": true}, "class_name": "BatchNormalization", "inbound_nodes": [[["res4b_branch2a", 0, 0, {}]]]}, {"name": "activation_25", "config": {"activation": "relu", "name": "activation_25", "dtype": "float32", "trainable": true}, "class_name": "Activation", "inbound_nodes": [[["bn4b_branch2a", 0, 0, {}]]]}, {"name": "res4b_branch2b", "config": {"bias_constraint": null, "strides": [1, 1], "kernel_initializer": {"config": {"distribution": "truncated_normal", "seed": null, "dtype": "float32", "scale": 2.0, "mode": "fan_in"}, "class_name": "VarianceScaling"}, "dilation_rate": [1, 1], "use_bias": true, "dtype": "float32", "kernel_size": [3, 3], "activation": "linear", "kernel_constraint": null, "filters": 256, "activity_regularizer": null, "data_format": "channels_last", "name": "res4b_branch2b", "bias_regularizer": null, "bias_initializer": {"config": {"dtype": "float32"}, "class_name": "Zeros"}, "kernel_regularizer": null, "padding": "same", "trainable": true}, "class_name": "Conv2D", "inbound_nodes": [[["activation_25", 0, 0, {}]]]}, {"name": "bn4b_branch2b", "config": {"momentum": 0.99, "beta_initializer": {"config": {"dtype": "float32"}, "class_name": "Zeros"}, "axis": [3], "gamma_regularizer": null, "dtype": "float32", "center": true, "scale": true, "beta_constraint": null, "gamma_constraint": null, "moving_mean_initializer": {"config": {"dtype": "float32"}, "class_name": "Zeros"}, "gamma_initializer": {"config": {"dtype": "float32"}, "class_name": "Ones"}, "name": "bn4b_branch2b", "beta_regularizer": null, "moving_variance_initializer": {"config": {"dtype": "float32"}, "class_name": "Ones"}, "epsilon": 0.001, "trainable": true}, "class_name": "BatchNormalization", "inbound_nodes": [[["res4b_branch2b", 0, 0, {}]]]}, {"name": "activation_26", "config": {"activation": "relu", "name": "activation_26", "dtype": "float32", "trainable": true}, "class_name": "Activation", "inbound_nodes": [[["bn4b_branch2b", 0, 0, {}]]]}, {"name": "res4b_branch2c", "config": {"bias_constraint": null, "strides": [1, 1], "kernel_initializer": {"config": {"distribution": "truncated_normal", "seed": null, "dtype": "float32", "scale": 2.0, "mode": "fan_in"}, "class_name": "VarianceScaling"}, "dilation_rate": [1, 1], "use_bias": true, "dtype": "float32", "kernel_size": [1, 1], "activation": "linear", "kernel_constraint": null, "filters": 1024, "activity_regularizer": null, "data_format": "channels_last", "name": "res4b_branch2c", "bias_regularizer": null, "bias_initializer": {"config": {"dtype": "float32"}, "class_name": "Zeros"}, "kernel_regularizer": null, "padding": "valid", "trainable": true}, "class_name": "Conv2D", "inbound_nodes": [[["activation_26", 0, 0, {}]]]}, {"name": "bn4b_branch2c", "config": {"momentum": 0.99, "beta_initializer": {"config": {"dtype": "float32"}, "class_name": "Zeros"}, "axis": [3], "gamma_regularizer": null, "dtype": "float32", "center": true, "scale": true, "beta_constraint": null, "gamma_constraint": null, "moving_mean_initializer": {"config": {"dtype": "float32"}, "class_name": "Zeros"}, "gamma_initializer": {"config": {"dtype": "float32"}, "class_name": "Ones"}, "name": "bn4b_branch2c", "beta_regularizer": null, "moving_variance_initializer": {"config": {"dtype": "float32"}, "class_name": "Ones"}, "epsilon": 0.001, "trainable": true}, "class_name": "BatchNormalization", "inbound_nodes": [[["res4b_branch2c", 0, 0, {}]]]}, {"name": "add_8", "config": {"name": "add_8", "dtype": "float32", "trainable": true}, "class_name": "Add", "inbound_nodes": [[["bn4b_branch2c", 0, 0, {}], ["activation_24", 0, 0, {}]]]}, {"name": "activation_27", "config": {"activation": "relu", "name": "activation_27", "dtype": "float32", "trainable": true}, "class_name": "Activation", "inbound_nodes": [[["add_8", 0, 0, {}]]]}, {"name": "res4c_branch2a", "config": {"bias_constraint": null, "strides": [1, 1], "kernel_initializer": {"config": {"distribution": "truncated_normal", "seed": null, "dtype": "float32", "scale": 2.0, "mode": "fan_in"}, "class_name": "VarianceScaling"}, "dilation_rate": [1, 1], "use_bias": true, "dtype": "float32", "kernel_size": [1, 1], "activation": "linear", "kernel_constraint": null, "filters": 256, "activity_regularizer": null, "data_format": "channels_last", "name": "res4c_branch2a", "bias_regularizer": null, "bias_initializer": {"config": {"dtype": "float32"}, "class_name": "Zeros"}, "kernel_regularizer": null, "padding": "valid", "trainable": true}, "class_name": "Conv2D", "inbound_nodes": [[["activation_27", 0, 0, {}]]]}, {"name": "bn4c_branch2a", "config": {"momentum": 0.99, "beta_initializer": {"config": {"dtype": "float32"}, "class_name": "Zeros"}, "axis": [3], "gamma_regularizer": null, "dtype": "float32", "center": true, "scale": true, "beta_constraint": null, "gamma_constraint": null, "moving_mean_initializer": {"config": {"dtype": "float32"}, "class_name": "Zeros"}, "gamma_initializer": {"config": {"dtype": "float32"}, "class_name": "Ones"}, "name": "bn4c_branch2a", "beta_regularizer": null, "moving_variance_initializer": {"config": {"dtype": "float32"}, "class_name": "Ones"}, "epsilon": 0.001, "trainable": true}, "class_name": "BatchNormalization", "inbound_nodes": [[["res4c_branch2a", 0, 0, {}]]]}, {"name": "activation_28", "config": {"activation": "relu", "name": "activation_28", "dtype": "float32", "trainable": true}, "class_name": "Activation", "inbound_nodes": [[["bn4c_branch2a", 0, 0, {}]]]}, {"name": "res4c_branch2b", "config": {"bias_constraint": null, "strides": [1, 1], "kernel_initializer": {"config": {"distribution": "truncated_normal", "seed": null, "dtype": "float32", "scale": 2.0, "mode": "fan_in"}, "class_name": "VarianceScaling"}, "dilation_rate": [1, 1], "use_bias": true, "dtype": "float32", "kernel_size": [3, 3], "activation": "linear", "kernel_constraint": null, "filters": 256, "activity_regularizer": null, "data_format": "channels_last", "name": "res4c_branch2b", "bias_regularizer": null, "bias_initializer": {"config": {"dtype": "float32"}, "class_name": "Zeros"}, "kernel_regularizer": null, "padding": "same", "trainable": true}, "class_name": "Conv2D", "inbound_nodes": [[["activation_28", 0, 0, {}]]]}, {"name": "bn4c_branch2b", "config": {"momentum": 0.99, "beta_initializer": {"config": {"dtype": "float32"}, "class_name": "Zeros"}, "axis": [3], "gamma_regularizer": null, "dtype": "float32", "center": true, "scale": true, "beta_constraint": null, "gamma_constraint": null, "moving_mean_initializer": {"config": {"dtype": "float32"}, "class_name": "Zeros"}, "gamma_initializer": {"config": {"dtype": "float32"}, "class_name": "Ones"}, "name": "bn4c_branch2b", "beta_regularizer": null, "moving_variance_initializer": {"config": {"dtype": "float32"}, "class_name": "Ones"}, "epsilon": 0.001, "trainable": true}, "class_name": "BatchNormalization", "inbound_nodes": [[["res4c_branch2b", 0, 0, {}]]]}, {"name": "activation_29", "config": {"activation": "relu", "name": "activation_29", "dtype": "float32", "trainable": true}, "class_name": "Activation", "inbound_nodes": [[["bn4c_branch2b", 0, 0, {}]]]}, {"name": "res4c_branch2c", "config": {"bias_constraint": null, "strides": [1, 1], "kernel_initializer": {"config": {"distribution": "truncated_normal", "seed": null, "dtype": "float32", "scale": 2.0, "mode": "fan_in"}, "class_name": "VarianceScaling"}, "dilation_rate": [1, 1], "use_bias": true, "dtype": "float32", "kernel_size": [1, 1], "activation": "linear", "kernel_constraint": null, "filters": 1024, "activity_regularizer": null, "data_format": "channels_last", "name": "res4c_branch2c", "bias_regularizer": null, "bias_initializer": {"config": {"dtype": "float32"}, "class_name": "Zeros"}, "kernel_regularizer": null, "padding": "valid", "trainable": true}, "class_name": "Conv2D", "inbound_nodes": [[["activation_29", 0, 0, {}]]]}, {"name": "bn4c_branch2c", "config": {"momentum": 0.99, "beta_initializer": {"config": {"dtype": "float32"}, "class_name": "Zeros"}, "axis": [3], "gamma_regularizer": null, "dtype": "float32", "center": true, "scale": true, "beta_constraint": null, "gamma_constraint": null, "moving_mean_initializer": {"config": {"dtype": "float32"}, "class_name": "Zeros"}, "gamma_initializer": {"config": {"dtype": "float32"}, "class_name": "Ones"}, "name": "bn4c_branch2c", "beta_regularizer": null, "moving_variance_initializer": {"config": {"dtype": "float32"}, "class_name": "Ones"}, "epsilon": 0.001, "trainable": true}, "class_name": "BatchNormalization", "inbound_nodes": [[["res4c_branch2c", 0, 0, {}]]]}, {"name": "add_9", "config": {"name": "add_9", "dtype": "float32", "trainable": true}, "class_name": "Add", "inbound_nodes": [[["bn4c_branch2c", 0, 0, {}], ["activation_27", 0, 0, {}]]]}, {"name": "activation_30", "config": {"activation": "relu", "name": "activation_30", "dtype": "float32", "trainable": true}, "class_name": "Activation", "inbound_nodes": [[["add_9", 0, 0, {}]]]}, {"name": "res4d_branch2a", "config": {"bias_constraint": null, "strides": [1, 1], "kernel_initializer": {"config": {"distribution": "truncated_normal", "seed": null, "dtype": "float32", "scale": 2.0, "mode": "fan_in"}, "class_name": "VarianceScaling"}, "dilation_rate": [1, 1], "use_bias": true, "dtype": "float32", "kernel_size": [1, 1], "activation": "linear", "kernel_constraint": null, "filters": 256, "activity_regularizer": null, "data_format": "channels_last", "name": "res4d_branch2a", "bias_regularizer": null, "bias_initializer": {"config": {"dtype": "float32"}, "class_name": "Zeros"}, "kernel_regularizer": null, "padding": "valid", "trainable": true}, "class_name": "Conv2D", "inbound_nodes": [[["activation_30", 0, 0, {}]]]}, {"name": "bn4d_branch2a", "config": {"momentum": 0.99, "beta_initializer": {"config": {"dtype": "float32"}, "class_name": "Zeros"}, "axis": [3], "gamma_regularizer": null, "dtype": "float32", "center": true, "scale": true, "beta_constraint": null, "gamma_constraint": null, "moving_mean_initializer": {"config": {"dtype": "float32"}, "class_name": "Zeros"}, "gamma_initializer": {"config": {"dtype": "float32"}, "class_name": "Ones"}, "name": "bn4d_branch2a", "beta_regularizer": null, "moving_variance_initializer": {"config": {"dtype": "float32"}, "class_name": "Ones"}, "epsilon": 0.001, "trainable": true}, "class_name": "BatchNormalization", "inbound_nodes": [[["res4d_branch2a", 0, 0, {}]]]}, {"name": "activation_31", "config": {"activation": "relu", "name": "activation_31", "dtype": "float32", "trainable": true}, "class_name": "Activation", "inbound_nodes": [[["bn4d_branch2a", 0, 0, {}]]]}, {"name": "res4d_branch2b", "config": {"bias_constraint": null, "strides": [1, 1], "kernel_initializer": {"config": {"distribution": "truncated_normal", "seed": null, "dtype": "float32", "scale": 2.0, "mode": "fan_in"}, "class_name": "VarianceScaling"}, "dilation_rate": [1, 1], "use_bias": true, "dtype": "float32", "kernel_size": [3, 3], "activation": "linear", "kernel_constraint": null, "filters": 256, "activity_regularizer": null, "data_format": "channels_last", "name": "res4d_branch2b", "bias_regularizer": null, "bias_initializer": {"config": {"dtype": "float32"}, "class_name": "Zeros"}, "kernel_regularizer": null, "padding": "same", "trainable": true}, "class_name": "Conv2D", "inbound_nodes": [[["activation_31", 0, 0, {}]]]}, {"name": "bn4d_branch2b", "config": {"momentum": 0.99, "beta_initializer": {"config": {"dtype": "float32"}, "class_name": "Zeros"}, "axis": [3], "gamma_regularizer": null, "dtype": "float32", "center": true, "scale": true, "beta_constraint": null, "gamma_constraint": null, "moving_mean_initializer": {"config": {"dtype": "float32"}, "class_name": "Zeros"}, "gamma_initializer": {"config": {"dtype": "float32"}, "class_name": "Ones"}, "name": "bn4d_branch2b", "beta_regularizer": null, "moving_variance_initializer": {"config": {"dtype": "float32"}, "class_name": "Ones"}, "epsilon": 0.001, "trainable": true}, "class_name": "BatchNormalization", "inbound_nodes": [[["res4d_branch2b", 0, 0, {}]]]}, {"name": "activation_32", "config": {"activation": "relu", "name": "activation_32", "dtype": "float32", "trainable": true}, "class_name": "Activation", "inbound_nodes": [[["bn4d_branch2b", 0, 0, {}]]]}, {"name": "res4d_branch2c", "config": {"bias_constraint": null, "strides": [1, 1], "kernel_initializer": {"config": {"distribution": "truncated_normal", "seed": null, "dtype": "float32", "scale": 2.0, "mode": "fan_in"}, "class_name": "VarianceScaling"}, "dilation_rate": [1, 1], "use_bias": true, "dtype": "float32", "kernel_size": [1, 1], "activation": "linear", "kernel_constraint": null, "filters": 1024, "activity_regularizer": null, "data_format": "channels_last", "name": "res4d_branch2c", "bias_regularizer": null, "bias_initializer": {"config": {"dtype": "float32"}, "class_name": "Zeros"}, "kernel_regularizer": null, "padding": "valid", "trainable": true}, "class_name": "Conv2D", "inbound_nodes": [[["activation_32", 0, 0, {}]]]}, {"name": "bn4d_branch2c", "config": {"momentum": 0.99, "beta_initializer": {"config": {"dtype": "float32"}, "class_name": "Zeros"}, "axis": [3], "gamma_regularizer": null, "dtype": "float32", "center": true, "scale": true, "beta_constraint": null, "gamma_constraint": null, "moving_mean_initializer": {"config": {"dtype": "float32"}, "class_name": "Zeros"}, "gamma_initializer": {"config": {"dtype": "float32"}, "class_name": "Ones"}, "name": "bn4d_branch2c", "beta_regularizer": null, "moving_variance_initializer": {"config": {"dtype": "float32"}, "class_name": "Ones"}, "epsilon": 0.001, "trainable": true}, "class_name": "BatchNormalization", "inbound_nodes": [[["res4d_branch2c", 0, 0, {}]]]}, {"name": "add_10", "config": {"name": "add_10", "dtype": "float32", "trainable": true}, "class_name": "Add", "inbound_nodes": [[["bn4d_branch2c", 0, 0, {}], ["activation_30", 0, 0, {}]]]}, {"name": "activation_33", "config": {"activation": "relu", "name": "activation_33", "dtype": "float32", "trainable": true}, "class_name": "Activation", "inbound_nodes": [[["add_10", 0, 0, {}]]]}, {"name": "res4e_branch2a", "config": {"bias_constraint": null, "strides": [1, 1], "kernel_initializer": {"config": {"distribution": "truncated_normal", "seed": null, "dtype": "float32", "scale": 2.0, "mode": "fan_in"}, "class_name": "VarianceScaling"}, "dilation_rate": [1, 1], "use_bias": true, "dtype": "float32", "kernel_size": [1, 1], "activation": "linear", "kernel_constraint": null, "filters": 256, "activity_regularizer": null, "data_format": "channels_last", "name": "res4e_branch2a", "bias_regularizer": null, "bias_initializer": {"config": {"dtype": "float32"}, "class_name": "Zeros"}, "kernel_regularizer": null, "padding": "valid", "trainable": true}, "class_name": "Conv2D", "inbound_nodes": [[["activation_33", 0, 0, {}]]]}, {"name": "bn4e_branch2a", "config": {"momentum": 0.99, "beta_initializer": {"config": {"dtype": "float32"}, "class_name": "Zeros"}, "axis": [3], "gamma_regularizer": null, "dtype": "float32", "center": true, "scale": true, "beta_constraint": null, "gamma_constraint": null, "moving_mean_initializer": {"config": {"dtype": "float32"}, "class_name": "Zeros"}, "gamma_initializer": {"config": {"dtype": "float32"}, "class_name": "Ones"}, "name": "bn4e_branch2a", "beta_regularizer": null, "moving_variance_initializer": {"config": {"dtype": "float32"}, "class_name": "Ones"}, "epsilon": 0.001, "trainable": true}, "class_name": "BatchNormalization", "inbound_nodes": [[["res4e_branch2a", 0, 0, {}]]]}, {"name": "activation_34", "config": {"activation": "relu", "name": "activation_34", "dtype": "float32", "trainable": true}, "class_name": "Activation", "inbound_nodes": [[["bn4e_branch2a", 0, 0, {}]]]}, {"name": "res4e_branch2b", "config": {"bias_constraint": null, "strides": [1, 1], "kernel_initializer": {"config": {"distribution": "truncated_normal", "seed": null, "dtype": "float32", "scale": 2.0, "mode": "fan_in"}, "class_name": "VarianceScaling"}, "dilation_rate": [1, 1], "use_bias": true, "dtype": "float32", "kernel_size": [3, 3], "activation": "linear", "kernel_constraint": null, "filters": 256, "activity_regularizer": null, "data_format": "channels_last", "name": "res4e_branch2b", "bias_regularizer": null, "bias_initializer": {"config": {"dtype": "float32"}, "class_name": "Zeros"}, "kernel_regularizer": null, "padding": "same", "trainable": true}, "class_name": "Conv2D", "inbound_nodes": [[["activation_34", 0, 0, {}]]]}, {"name": "bn4e_branch2b", "config": {"momentum": 0.99, "beta_initializer": {"config": {"dtype": "float32"}, "class_name": "Zeros"}, "axis": [3], "gamma_regularizer": null, "dtype": "float32", "center": true, "scale": true, "beta_constraint": null, "gamma_constraint": null, "moving_mean_initializer": {"config": {"dtype": "float32"}, "class_name": "Zeros"}, "gamma_initializer": {"config": {"dtype": "float32"}, "class_name": "Ones"}, "name": "bn4e_branch2b", "beta_regularizer": null, "moving_variance_initializer": {"config": {"dtype": "float32"}, "class_name": "Ones"}, "epsilon": 0.001, "trainable": true}, "class_name": "BatchNormalization", "inbound_nodes": [[["res4e_branch2b", 0, 0, {}]]]}, {"name": "activation_35", "config": {"activation": "relu", "name": "activation_35", "dtype": "float32", "trainable": true}, "class_name": "Activation", "inbound_nodes": [[["bn4e_branch2b", 0, 0, {}]]]}, {"name": "res4e_branch2c", "config": {"bias_constraint": null, "strides": [1, 1], "kernel_initializer": {"config": {"distribution": "truncated_normal", "seed": null, "dtype": "float32", "scale": 2.0, "mode": "fan_in"}, "class_name": "VarianceScaling"}, "dilation_rate": [1, 1], "use_bias": true, "dtype": "float32", "kernel_size": [1, 1], "activation": "linear", "kernel_constraint": null, "filters": 1024, "activity_regularizer": null, "data_format": "channels_last", "name": "res4e_branch2c", "bias_regularizer": null, "bias_initializer": {"config": {"dtype": "float32"}, "class_name": "Zeros"}, "kernel_regularizer": null, "padding": "valid", "trainable": true}, "class_name": "Conv2D", "inbound_nodes": [[["activation_35", 0, 0, {}]]]}, {"name": "bn4e_branch2c", "config": {"momentum": 0.99, "beta_initializer": {"config": {"dtype": "float32"}, "class_name": "Zeros"}, "axis": [3], "gamma_regularizer": null, "dtype": "float32", "center": true, "scale": true, "beta_constraint": null, "gamma_constraint": null, "moving_mean_initializer": {"config": {"dtype": "float32"}, "class_name": "Zeros"}, "gamma_initializer": {"config": {"dtype": "float32"}, "class_name": "Ones"}, "name": "bn4e_branch2c", "beta_regularizer": null, "moving_variance_initializer": {"config": {"dtype": "float32"}, "class_name": "Ones"}, "epsilon": 0.001, "trainable": true}, "class_name": "BatchNormalization", "inbound_nodes": [[["res4e_branch2c", 0, 0, {}]]]}, {"name": "add_11", "config": {"name": "add_11", "dtype": "float32", "trainable": true}, "class_name": "Add", "inbound_nodes": [[["bn4e_branch2c", 0, 0, {}], ["activation_33", 0, 0, {}]]]}, {"name": "activation_36", "config": {"activation": "relu", "name": "activation_36", "dtype": "float32", "trainable": true}, "class_name": "Activation", "inbound_nodes": [[["add_11", 0, 0, {}]]]}, {"name": "res4f_branch2a", "config": {"bias_constraint": null, "strides": [1, 1], "kernel_initializer": {"config": {"distribution": "truncated_normal", "seed": null, "dtype": "float32", "scale": 2.0, "mode": "fan_in"}, "class_name": "VarianceScaling"}, "dilation_rate": [1, 1], "use_bias": true, "dtype": "float32", "kernel_size": [1, 1], "activation": "linear", "kernel_constraint": null, "filters": 256, "activity_regularizer": null, "data_format": "channels_last", "name": "res4f_branch2a", "bias_regularizer": null, "bias_initializer": {"config": {"dtype": "float32"}, "class_name": "Zeros"}, "kernel_regularizer": null, "padding": "valid", "trainable": true}, "class_name": "Conv2D", "inbound_nodes": [[["activation_36", 0, 0, {}]]]}, {"name": "bn4f_branch2a", "config": {"momentum": 0.99, "beta_initializer": {"config": {"dtype": "float32"}, "class_name": "Zeros"}, "axis": [3], "gamma_regularizer": null, "dtype": "float32", "center": true, "scale": true, "beta_constraint": null, "gamma_constraint": null, "moving_mean_initializer": {"config": {"dtype": "float32"}, "class_name": "Zeros"}, "gamma_initializer": {"config": {"dtype": "float32"}, "class_name": "Ones"}, "name": "bn4f_branch2a", "beta_regularizer": null, "moving_variance_initializer": {"config": {"dtype": "float32"}, "class_name": "Ones"}, "epsilon": 0.001, "trainable": true}, "class_name": "BatchNormalization", "inbound_nodes": [[["res4f_branch2a", 0, 0, {}]]]}, {"name": "activation_37", "config": {"activation": "relu", "name": "activation_37", "dtype": "float32", "trainable": true}, "class_name": "Activation", "inbound_nodes": [[["bn4f_branch2a", 0, 0, {}]]]}, {"name": "res4f_branch2b", "config": {"bias_constraint": null, "strides": [1, 1], "kernel_initializer": {"config": {"distribution": "truncated_normal", "seed": null, "dtype": "float32", "scale": 2.0, "mode": "fan_in"}, "class_name": "VarianceScaling"}, "dilation_rate": [1, 1], "use_bias": true, "dtype": "float32", "kernel_size": [3, 3], "activation": "linear", "kernel_constraint": null, "filters": 256, "activity_regularizer": null, "data_format": "channels_last", "name": "res4f_branch2b", "bias_regularizer": null, "bias_initializer": {"config": {"dtype": "float32"}, "class_name": "Zeros"}, "kernel_regularizer": null, "padding": "same", "trainable": true}, "class_name": "Conv2D", "inbound_nodes": [[["activation_37", 0, 0, {}]]]}, {"name": "bn4f_branch2b", "config": {"momentum": 0.99, "beta_initializer": {"config": {"dtype": "float32"}, "class_name": "Zeros"}, "axis": [3], "gamma_regularizer": null, "dtype": "float32", "center": true, "scale": true, "beta_constraint": null, "gamma_constraint": null, "moving_mean_initializer": {"config": {"dtype": "float32"}, "class_name": "Zeros"}, "gamma_initializer": {"config": {"dtype": "float32"}, "class_name": "Ones"}, "name": "bn4f_branch2b", "beta_regularizer": null, "moving_variance_initializer": {"config": {"dtype": "float32"}, "class_name": "Ones"}, "epsilon": 0.001, "trainable": true}, "class_name": "BatchNormalization", "inbound_nodes": [[["res4f_branch2b", 0, 0, {}]]]}, {"name": "activation_38", "config": {"activation": "relu", "name": "activation_38", "dtype": "float32", "trainable": true}, "class_name": "Activation", "inbound_nodes": [[["bn4f_branch2b", 0, 0, {}]]]}, {"name": "res4f_branch2c", "config": {"bias_constraint": null, "strides": [1, 1], "kernel_initializer": {"config": {"distribution": "truncated_normal", "seed": null, "dtype": "float32", "scale": 2.0, "mode": "fan_in"}, "class_name": "VarianceScaling"}, "dilation_rate": [1, 1], "use_bias": true, "dtype": "float32", "kernel_size": [1, 1], "activation": "linear", "kernel_constraint": null, "filters": 1024, "activity_regularizer": null, "data_format": "channels_last", "name": "res4f_branch2c", "bias_regularizer": null, "bias_initializer": {"config": {"dtype": "float32"}, "class_name": "Zeros"}, "kernel_regularizer": null, "padding": "valid", "trainable": true}, "class_name": "Conv2D", "inbound_nodes": [[["activation_38", 0, 0, {}]]]}, {"name": "bn4f_branch2c", "config": {"momentum": 0.99, "beta_initializer": {"config": {"dtype": "float32"}, "class_name": "Zeros"}, "axis": [3], "gamma_regularizer": null, "dtype": "float32", "center": true, "scale": true, "beta_constraint": null, "gamma_constraint": null, "moving_mean_initializer": {"config": {"dtype": "float32"}, "class_name": "Zeros"}, "gamma_initializer": {"config": {"dtype": "float32"}, "class_name": "Ones"}, "name": "bn4f_branch2c", "beta_regularizer": null, "moving_variance_initializer": {"config": {"dtype": "float32"}, "class_name": "Ones"}, "epsilon": 0.001, "trainable": true}, "class_name": "BatchNormalization", "inbound_nodes": [[["res4f_branch2c", 0, 0, {}]]]}, {"name": "add_12", "config": {"name": "add_12", "dtype": "float32", "trainable": true}, "class_name": "Add", "inbound_nodes": [[["bn4f_branch2c", 0, 0, {}], ["activation_36", 0, 0, {}]]]}, {"name": "activation_39", "config": {"activation": "relu", "name": "activation_39", "dtype": "float32", "trainable": true}, "class_name": "Activation", "inbound_nodes": [[["add_12", 0, 0, {}]]]}, {"name": "res5a_branch2a", "config": {"bias_constraint": null, "strides": [2, 2], "kernel_initializer": {"config": {"distribution": "truncated_normal", "seed": null, "dtype": "float32", "scale": 2.0, "mode": "fan_in"}, "class_name": "VarianceScaling"}, "dilation_rate": [1, 1], "use_bias": true, "dtype": "float32", "kernel_size": [1, 1], "activation": "linear", "kernel_constraint": null, "filters": 512, "activity_regularizer": null, "data_format": "channels_last", "name": "res5a_branch2a", "bias_regularizer": null, "bias_initializer": {"config": {"dtype": "float32"}, "class_name": "Zeros"}, "kernel_regularizer": null, "padding": "valid", "trainable": true}, "class_name": "Conv2D", "inbound_nodes": [[["activation_39", 0, 0, {}]]]}, {"name": "bn5a_branch2a", "config": {"momentum": 0.99, "beta_initializer": {"config": {"dtype": "float32"}, "class_name": "Zeros"}, "axis": [3], "gamma_regularizer": null, "dtype": "float32", "center": true, "scale": true, "beta_constraint": null, "gamma_constraint": null, "moving_mean_initializer": {"config": {"dtype": "float32"}, "class_name": "Zeros"}, "gamma_initializer": {"config": {"dtype": "float32"}, "class_name": "Ones"}, "name": "bn5a_branch2a", "beta_regularizer": null, "moving_variance_initializer": {"config": {"dtype": "float32"}, "class_name": "Ones"}, "epsilon": 0.001, "trainable": true}, "class_name": "BatchNormalization", "inbound_nodes": [[["res5a_branch2a", 0, 0, {}]]]}, {"name": "activation_40", "config": {"activation": "relu", "name": "activation_40", "dtype": "float32", "trainable": true}, "class_name": "Activation", "inbound_nodes": [[["bn5a_branch2a", 0, 0, {}]]]}, {"name": "res5a_branch2b", "config": {"bias_constraint": null, "strides": [1, 1], "kernel_initializer": {"config": {"distribution": "truncated_normal", "seed": null, "dtype": "float32", "scale": 2.0, "mode": "fan_in"}, "class_name": "VarianceScaling"}, "dilation_rate": [1, 1], "use_bias": true, "dtype": "float32", "kernel_size": [3, 3], "activation": "linear", "kernel_constraint": null, "filters": 512, "activity_regularizer": null, "data_format": "channels_last", "name": "res5a_branch2b", "bias_regularizer": null, "bias_initializer": {"config": {"dtype": "float32"}, "class_name": "Zeros"}, "kernel_regularizer": null, "padding": "same", "trainable": true}, "class_name": "Conv2D", "inbound_nodes": [[["activation_40", 0, 0, {}]]]}, {"name": "bn5a_branch2b", "config": {"momentum": 0.99, "beta_initializer": {"config": {"dtype": "float32"}, "class_name": "Zeros"}, "axis": [3], "gamma_regularizer": null, "dtype": "float32", "center": true, "scale": true, "beta_constraint": null, "gamma_constraint": null, "moving_mean_initializer": {"config": {"dtype": "float32"}, "class_name": "Zeros"}, "gamma_initializer": {"config": {"dtype": "float32"}, "class_name": "Ones"}, "name": "bn5a_branch2b", "beta_regularizer": null, "moving_variance_initializer": {"config": {"dtype": "float32"}, "class_name": "Ones"}, "epsilon": 0.001, "trainable": true}, "class_name": "BatchNormalization", "inbound_nodes": [[["res5a_branch2b", 0, 0, {}]]]}, {"name": "activation_41", "config": {"activation": "relu", "name": "activation_41", "dtype": "float32", "trainable": true}, "class_name": "Activation", "inbound_nodes": [[["bn5a_branch2b", 0, 0, {}]]]}, {"name": "res5a_branch2c", "config": {"bias_constraint": null, "strides": [1, 1], "kernel_initializer": {"config": {"distribution": "truncated_normal", "seed": null, "dtype": "float32", "scale": 2.0, "mode": "fan_in"}, "class_name": "VarianceScaling"}, "dilation_rate": [1, 1], "use_bias": true, "dtype": "float32", "kernel_size": [1, 1], "activation": "linear", "kernel_constraint": null, "filters": 2048, "activity_regularizer": null, "data_format": "channels_last", "name": "res5a_branch2c", "bias_regularizer": null, "bias_initializer": {"config": {"dtype": "float32"}, "class_name": "Zeros"}, "kernel_regularizer": null, "padding": "valid", "trainable": true}, "class_name": "Conv2D", "inbound_nodes": [[["activation_41", 0, 0, {}]]]}, {"name": "res5a_branch1", "config": {"bias_constraint": null, "strides": [2, 2], "kernel_initializer": {"config": {"distribution": "truncated_normal", "seed": null, "dtype": "float32", "scale": 2.0, "mode": "fan_in"}, "class_name": "VarianceScaling"}, "dilation_rate": [1, 1], "use_bias": true, "dtype": "float32", "kernel_size": [1, 1], "activation": "linear", "kernel_constraint": null, "filters": 2048, "activity_regularizer": null, "data_format": "channels_last", "name": "res5a_branch1", "bias_regularizer": null, "bias_initializer": {"config": {"dtype": "float32"}, "class_name": "Zeros"}, "kernel_regularizer": null, "padding": "valid", "trainable": true}, "class_name": "Conv2D", "inbound_nodes": [[["activation_39", 0, 0, {}]]]}, {"name": "bn5a_branch2c", "config": {"momentum": 0.99, "beta_initializer": {"config": {"dtype": "float32"}, "class_name": "Zeros"}, "axis": [3], "gamma_regularizer": null, "dtype": "float32", "center": true, "scale": true, "beta_constraint": null, "gamma_constraint": null, "moving_mean_initializer": {"config": {"dtype": "float32"}, "class_name": "Zeros"}, "gamma_initializer": {"config": {"dtype": "float32"}, "class_name": "Ones"}, "name": "bn5a_branch2c", "beta_regularizer": null, "moving_variance_initializer": {"config": {"dtype": "float32"}, "class_name": "Ones"}, "epsilon": 0.001, "trainable": true}, "class_name": "BatchNormalization", "inbound_nodes": [[["res5a_branch2c", 0, 0, {}]]]}, {"name": "bn5a_branch1", "config": {"momentum": 0.99, "beta_initializer": {"config": {"dtype": "float32"}, "class_name": "Zeros"}, "axis": [3], "gamma_regularizer": null, "dtype": "float32", "center": true, "scale": true, "beta_constraint": null, "gamma_constraint": null, "moving_mean_initializer": {"config": {"dtype": "float32"}, "class_name": "Zeros"}, "gamma_initializer": {"config": {"dtype": "float32"}, "class_name": "Ones"}, "name": "bn5a_branch1", "beta_regularizer": null, "moving_variance_initializer": {"config": {"dtype": "float32"}, "class_name": "Ones"}, "epsilon": 0.001, "trainable": true}, "class_name": "BatchNormalization", "inbound_nodes": [[["res5a_branch1", 0, 0, {}]]]}, {"name": "add_13", "config": {"name": "add_13", "dtype": "float32", "trainable": true}, "class_name": "Add", "inbound_nodes": [[["bn5a_branch2c", 0, 0, {}], ["bn5a_branch1", 0, 0, {}]]]}, {"name": "activation_42", "config": {"activation": "relu", "name": "activation_42", "dtype": "float32", "trainable": true}, "class_name": "Activation", "inbound_nodes": [[["add_13", 0, 0, {}]]]}, {"name": "res5b_branch2a", "config": {"bias_constraint": null, "strides": [1, 1], "kernel_initializer": {"config": {"distribution": "truncated_normal", "seed": null, "dtype": "float32", "scale": 2.0, "mode": "fan_in"}, "class_name": "VarianceScaling"}, "dilation_rate": [1, 1], "use_bias": true, "dtype": "float32", "kernel_size": [1, 1], "activation": "linear", "kernel_constraint": null, "filters": 512, "activity_regularizer": null, "data_format": "channels_last", "name": "res5b_branch2a", "bias_regularizer": null, "bias_initializer": {"config": {"dtype": "float32"}, "class_name": "Zeros"}, "kernel_regularizer": null, "padding": "valid", "trainable": true}, "class_name": "Conv2D", "inbound_nodes": [[["activation_42", 0, 0, {}]]]}, {"name": "bn5b_branch2a", "config": {"momentum": 0.99, "beta_initializer": {"config": {"dtype": "float32"}, "class_name": "Zeros"}, "axis": [3], "gamma_regularizer": null, "dtype": "float32", "center": true, "scale": true, "beta_constraint": null, "gamma_constraint": null, "moving_mean_initializer": {"config": {"dtype": "float32"}, "class_name": "Zeros"}, "gamma_initializer": {"config": {"dtype": "float32"}, "class_name": "Ones"}, "name": "bn5b_branch2a", "beta_regularizer": null, "moving_variance_initializer": {"config": {"dtype": "float32"}, "class_name": "Ones"}, "epsilon": 0.001, "trainable": true}, "class_name": "BatchNormalization", "inbound_nodes": [[["res5b_branch2a", 0, 0, {}]]]}, {"name": "activation_43", "config": {"activation": "relu", "name": "activation_43", "dtype": "float32", "trainable": true}, "class_name": "Activation", "inbound_nodes": [[["bn5b_branch2a", 0, 0, {}]]]}, {"name": "res5b_branch2b", "config": {"bias_constraint": null, "strides": [1, 1], "kernel_initializer": {"config": {"distribution": "truncated_normal", "seed": null, "dtype": "float32", "scale": 2.0, "mode": "fan_in"}, "class_name": "VarianceScaling"}, "dilation_rate": [1, 1], "use_bias": true, "dtype": "float32", "kernel_size": [3, 3], "activation": "linear", "kernel_constraint": null, "filters": 512, "activity_regularizer": null, "data_format": "channels_last", "name": "res5b_branch2b", "bias_regularizer": null, "bias_initializer": {"config": {"dtype": "float32"}, "class_name": "Zeros"}, "kernel_regularizer": null, "padding": "same", "trainable": true}, "class_name": "Conv2D", "inbound_nodes": [[["activation_43", 0, 0, {}]]]}, {"name": "bn5b_branch2b", "config": {"momentum": 0.99, "beta_initializer": {"config": {"dtype": "float32"}, "class_name": "Zeros"}, "axis": [3], "gamma_regularizer": null, "dtype": "float32", "center": true, "scale": true, "beta_constraint": null, "gamma_constraint": null, "moving_mean_initializer": {"config": {"dtype": "float32"}, "class_name": "Zeros"}, "gamma_initializer": {"config": {"dtype": "float32"}, "class_name": "Ones"}, "name": "bn5b_branch2b", "beta_regularizer": null, "moving_variance_initializer": {"config": {"dtype": "float32"}, "class_name": "Ones"}, "epsilon": 0.001, "trainable": true}, "class_name": "BatchNormalization", "inbound_nodes": [[["res5b_branch2b", 0, 0, {}]]]}, {"name": "activation_44", "config": {"activation": "relu", "name": "activation_44", "dtype": "float32", "trainable": true}, "class_name": "Activation", "inbound_nodes": [[["bn5b_branch2b", 0, 0, {}]]]}, {"name": "res5b_branch2c", "config": {"bias_constraint": null, "strides": [1, 1], "kernel_initializer": {"config": {"distribution": "truncated_normal", "seed": null, "dtype": "float32", "scale": 2.0, "mode": "fan_in"}, "class_name": "VarianceScaling"}, "dilation_rate": [1, 1], "use_bias": true, "dtype": "float32", "kernel_size": [1, 1], "activation": "linear", "kernel_constraint": null, "filters": 2048, "activity_regularizer": null, "data_format": "channels_last", "name": "res5b_branch2c", "bias_regularizer": null, "bias_initializer": {"config": {"dtype": "float32"}, "class_name": "Zeros"}, "kernel_regularizer": null, "padding": "valid", "trainable": true}, "class_name": "Conv2D", "inbound_nodes": [[["activation_44", 0, 0, {}]]]}, {"name": "bn5b_branch2c", "config": {"momentum": 0.99, "beta_initializer": {"config": {"dtype": "float32"}, "class_name": "Zeros"}, "axis": [3], "gamma_regularizer": null, "dtype": "float32", "center": true, "scale": true, "beta_constraint": null, "gamma_constraint": null, "moving_mean_initializer": {"config": {"dtype": "float32"}, "class_name": "Zeros"}, "gamma_initializer": {"config": {"dtype": "float32"}, "class_name": "Ones"}, "name": "bn5b_branch2c", "beta_regularizer": null, "moving_variance_initializer": {"config": {"dtype": "float32"}, "class_name": "Ones"}, "epsilon": 0.001, "trainable": true}, "class_name": "BatchNormalization", "inbound_nodes": [[["res5b_branch2c", 0, 0, {}]]]}, {"name": "add_14", "config": {"name": "add_14", "dtype": "float32", "trainable": true}, "class_name": "Add", "inbound_nodes": [[["bn5b_branch2c", 0, 0, {}], ["activation_42", 0, 0, {}]]]}, {"name": "activation_45", "config": {"activation": "relu", "name": "activation_45", "dtype": "float32", "trainable": true}, "class_name": "Activation", "inbound_nodes": [[["add_14", 0, 0, {}]]]}, {"name": "res5c_branch2a", "config": {"bias_constraint": null, "strides": [1, 1], "kernel_initializer": {"config": {"distribution": "truncated_normal", "seed": null, "dtype": "float32", "scale": 2.0, "mode": "fan_in"}, "class_name": "VarianceScaling"}, "dilation_rate": [1, 1], "use_bias": true, "dtype": "float32", "kernel_size": [1, 1], "activation": "linear", "kernel_constraint": null, "filters": 512, "activity_regularizer": null, "data_format": "channels_last", "name": "res5c_branch2a", "bias_regularizer": null, "bias_initializer": {"config": {"dtype": "float32"}, "class_name": "Zeros"}, "kernel_regularizer": null, "padding": "valid", "trainable": true}, "class_name": "Conv2D", "inbound_nodes": [[["activation_45", 0, 0, {}]]]}, {"name": "bn5c_branch2a", "config": {"momentum": 0.99, "beta_initializer": {"config": {"dtype": "float32"}, "class_name": "Zeros"}, "axis": [3], "gamma_regularizer": null, "dtype": "float32", "center": true, "scale": true, "beta_constraint": null, "gamma_constraint": null, "moving_mean_initializer": {"config": {"dtype": "float32"}, "class_name": "Zeros"}, "gamma_initializer": {"config": {"dtype": "float32"}, "class_name": "Ones"}, "name": "bn5c_branch2a", "beta_regularizer": null, "moving_variance_initializer": {"config": {"dtype": "float32"}, "class_name": "Ones"}, "epsilon": 0.001, "trainable": true}, "class_name": "BatchNormalization", "inbound_nodes": [[["res5c_branch2a", 0, 0, {}]]]}, {"name": "activation_46", "config": {"activation": "relu", "name": "activation_46", "dtype": "float32", "trainable": true}, "class_name": "Activation", "inbound_nodes": [[["bn5c_branch2a", 0, 0, {}]]]}, {"name": "res5c_branch2b", "config": {"bias_constraint": null, "strides": [1, 1], "kernel_initializer": {"config": {"distribution": "truncated_normal", "seed": null, "dtype": "float32", "scale": 2.0, "mode": "fan_in"}, "class_name": "VarianceScaling"}, "dilation_rate": [1, 1], "use_bias": true, "dtype": "float32", "kernel_size": [3, 3], "activation": "linear", "kernel_constraint": null, "filters": 512, "activity_regularizer": null, "data_format": "channels_last", "name": "res5c_branch2b", "bias_regularizer": null, "bias_initializer": {"config": {"dtype": "float32"}, "class_name": "Zeros"}, "kernel_regularizer": null, "padding": "same", "trainable": true}, "class_name": "Conv2D", "inbound_nodes": [[["activation_46", 0, 0, {}]]]}, {"name": "bn5c_branch2b", "config": {"momentum": 0.99, "beta_initializer": {"config": {"dtype": "float32"}, "class_name": "Zeros"}, "axis": [3], "gamma_regularizer": null, "dtype": "float32", "center": true, "scale": true, "beta_constraint": null, "gamma_constraint": null, "moving_mean_initializer": {"config": {"dtype": "float32"}, "class_name": "Zeros"}, "gamma_initializer": {"config": {"dtype": "float32"}, "class_name": "Ones"}, "name": "bn5c_branch2b", "beta_regularizer": null, "moving_variance_initializer": {"config": {"dtype": "float32"}, "class_name": "Ones"}, "epsilon": 0.001, "trainable": true}, "class_name": "BatchNormalization", "inbound_nodes": [[["res5c_branch2b", 0, 0, {}]]]}, {"name": "activation_47", "config": {"activation": "relu", "name": "activation_47", "dtype": "float32", "trainable": true}, "class_name": "Activation", "inbound_nodes": [[["bn5c_branch2b", 0, 0, {}]]]}, {"name": "res5c_branch2c", "config": {"bias_constraint": null, "strides": [1, 1], "kernel_initializer": {"config": {"distribution": "truncated_normal", "seed": null, "dtype": "float32", "scale": 2.0, "mode": "fan_in"}, "class_name": "VarianceScaling"}, "dilation_rate": [1, 1], "use_bias": true, "dtype": "float32", "kernel_size": [1, 1], "activation": "linear", "kernel_constraint": null, "filters": 2048, "activity_regularizer": null, "data_format": "channels_last", "name": "res5c_branch2c", "bias_regularizer": null, "bias_initializer": {"config": {"dtype": "float32"}, "class_name": "Zeros"}, "kernel_regularizer": null, "padding": "valid", "trainable": true}, "class_name": "Conv2D", "inbound_nodes": [[["activation_47", 0, 0, {}]]]}, {"name": "bn5c_branch2c", "config": {"momentum": 0.99, "beta_initializer": {"config": {"dtype": "float32"}, "class_name": "Zeros"}, "axis": [3], "gamma_regularizer": null, "dtype": "float32", "center": true, "scale": true, "beta_constraint": null, "gamma_constraint": null, "moving_mean_initializer": {"config": {"dtype": "float32"}, "class_name": "Zeros"}, "gamma_initializer": {"config": {"dtype": "float32"}, "class_name": "Ones"}, "name": "bn5c_branch2c", "beta_regularizer": null, "moving_variance_initializer": {"config": {"dtype": "float32"}, "class_name": "Ones"}, "epsilon": 0.001, "trainable": true}, "class_name": "BatchNormalization", "inbound_nodes": [[["res5c_branch2c", 0, 0, {}]]]}, {"name": "add_15", "config": {"name": "add_15", "dtype": "float32", "trainable": true}, "class_name": "Add", "inbound_nodes": [[["bn5c_branch2c", 0, 0, {}], ["activation_45", 0, 0, {}]]]}, {"name": "activation_48", "config": {"activation": "relu", "name": "activation_48", "dtype": "float32", "trainable": true}, "class_name": "Activation", "inbound_nodes": [[["add_15", 0, 0, {}]]]}, {"name": "global_average_pooling2d", "config": {"name": "global_average_pooling2d", "dtype": "float32", "data_format": "channels_last", "trainable": true}, "class_name": "GlobalAveragePooling2D", "inbound_nodes": [[["activation_48", 0, 0, {}]]]}], "output_layers": [["global_average_pooling2d", 0, 0]]}, "class_name": "Model"}, {"config": {"units": 2, "bias_initializer": {"config": {"dtype": "float32"}, "class_name": "Zeros"}, "use_bias": true, "dtype": "float32", "activation": "softmax", "kernel_constraint": null, "activity_regularizer": null, "name": "dense", "bias_regularizer": null, "trainable": true, "kernel_initializer": {"config": {"dtype": "float32", "seed": null}, "class_name": "GlorotUniform"}, "kernel_regularizer": null, "bias_constraint": null}, "class_name": "Dense"}]}, "class_name": "Sequential", "backend": "tensorflow"}